weights/W1.npy (npy, 125568 bytes, 1 tensors)

array f8 [20, 784]
0	0x3fd9491198bebb0e	0.39508476177700025
1	0xbfd8a8ee88f55794	-0.3853107774242457
2	0xbfd1f303e1573780	-0.28045746808935945
3	0xbfdb4d91e36530d2	-0.4266094895035738
4	0x3fd3d8c5f45318f2	0.31010578975509795
5	0x3fd51281aaa0b4d0	0.3292545477186879
6	0x3fd7cc36189b7992	0.3718390693956276
7	0x3fb0ab8c23511cf0	0.06511760580280046
8	0xbfd8c5c25e66c55e	-0.3870702669037963
9	0x3fd27aa3cfc930f8	0.28873534480659613
10	0x3fd275bb8e50b040	0.28843583009689056
11	0xbf91e6e23a9d49e0	-0.017482313945331174
12	0x3fc55c21e6a79dfe	0.1668741585010451
13	0x3fdde16673110f8e	0.4668823360154811
14	0xbfb810796defe714	-0.09400137838374817
15	0xbfd9ae221cd69c39	-0.40125325027696906
16	0xbfaf82b4f0f4f760	-0.061544088758167304
17	0x3fdab598fe5ca160	0.4173338397981947
18	0xbfd0ad358efcb1be	-0.2605718513830445
19	0xbfdb5467bda3c068	-0.42702668685433887
20	0xbfdb636aa02a68d6	-0.4279429020040316
21	0x3fc99538eae76600	0.19986640424649238
22	0xbfd7bfc9be85ebc6	-0.3710808144166403
23	0x3fc1e44073c02200	0.13977819110756684
24	0x3fc6b81ddf140e70	0.17749379532334641
25	0x3fbb8b552df11a18	0.1075947987711533
26	0xbfd912daadb15330	-0.39177576982665396
27	0xbfde17aa982384ee	-0.4701944814424469
28	0xbfd6d17e77caf82c	-0.35653649996300163
29	0xbfdc2a6a08b02378	-0.4400887570232537
30	0x3fca12152844f698	0.2036768385532255
31	0x3fa3c5f93a72e810	0.038619793305272876
32	0x3fda3804e5d8e04c	0.40966913648617687
33	0x3fd476110baf0e0d	0.319706212434739
34	0x3fdfb4dd159662e3	0.4954140387358576
35	0xbfd2381540ee825c	-0.2846730360124974
36	0xbfb1715747343353	-0.06813569534660972
37	0xbfb8ca14add907d2	-0.09683350796061
38	0x3fca7ea31bda3d4e	0.20698965892777682
39	0xbf8de7b36cfab50b	-0.014602090609822335
40	0xbfdd348106e73e5d	-0.4563295905508989
41	0xbfcc2690ef58ca8f	-0.2199269455610033
42	0xbfd2a0f61b12a5ce	-0.29107430118400834
43	0xbfb42f946a68ff88	-0.07885100934890776
44	0x3fd0a31935c74036	0.25995474101819427
45	0xbfc7031e93a04544	-0.17978269775680122
46	0xbfd17ab6b1b6595b	-0.27311484675137415
47	0x3fdf7bf0314d001b	0.4919395905926664
48	0x3fdc29b23705d7e5	0.4400449311573296
49	0x3fdcb4d33c9f36cc	0.44853669090376225
50	0x3fc23a2b373fe369	0.14240017125828366
51	0xbfbe2ed4aab1fbaf	-0.11790208022465153
52	0xbfd9f8217b774b3e	-0.40576970154977576
53	0x3fa0083209fa1bb0	0.0313125264338433
54	0xbfcf905641c89c74	-0.2465923138817946
55	0x3fd3ed52da9053a8	0.31136008590811537
56	0xbfd1ba9f8a341fae	-0.27701557632871754
57	0x3fc6ae91f68442a0	0.17720245873399154
58	0xbfdf0064472311d9	-0.48439890810939584
59	0xbfd67025b0f51bae	-0.35059492379189805
60	0xbfcbbb54ef89fa4c	-0.21665441223372495
61	0xbfbbae98c19ef7dd	-0.10813288428377583
62	0x3fc573444fea3053	0.16758016492929304
63	0x3fd9c01f4a5e7b0c	0.4023512102375413
64	0x3fcca03819c8476b	0.22363950022605236
65	0x3fc2e629b351fc19	0.1476490140521214
66	0xbfd81d69b53419f7	-0.37679522224098555
67	0xbfd26153b5b35ce6	-0.2871903681202198
68	0x3fc8cbb8b5c9b2df	0.19371708752023317
69	0xbfb13917209b6562	-0.0672773794753048
70	0xbfd6ff68b120fe67	-0.35933892534010287
71	0xbfd60cdf0bc3d699	-0.34453560017514345
72	0xbfca1060c27ef5dc	-0.2036248159110262
73	0xbfd080d5e5e6d676	-0.257863497270001
74	0x3fdbedaca65509d9	0.436381494935771
75	0x3fce89c66f7217fe	0.2385795635383942
76	0xbfba21dd9b802a69	-0.10207924887087362
77	0xbfd84942071272a8	-0.3794713086188417
78	0xbfd398006464470e	-0.3061524372470651
79	0xbfd682e8b902d6ec	-0.35174005572785805
80	0xbfb21f5af2ef0eb7	-0.07079094344140456
81	0x3fd490087a38ec1c	0.32129108367706904
82	0xbfd75f6f75f3c452	-0.36519991415759023
83	0xbfba014c547f4110	-0.10158230841557647
84	0xbfd42babcc7c56e8	-0.315165471737926
85	0x3fd9c4f6e6b32434	0.40264675645136383
86	0x3fb582a42eb57c70	0.0840246786151384
87	0xbfaaf4f80c7e0e78	-0.05265021469588488
88	0xbfd61af911851351	-0.34539629660530574
89	0x3fe009cfc2197da8	0.5011976996428773
90	0x3fc4d06ee1eeafab	0.1626108744798079
91	0xbfd2884d22973b7a	-0.28956917169573837
92	0x3fd3b04a0726859c	0.30763483713425344
93	0x3fdc0de9d775996c	0.438349209222358
94	0x3fcf80cf85f545f6	0.24611848870203773
95	0xbfc03ad1800f940f	-0.12679499390574775
96	0xbfd513c5e30f2346	-0.3293318478941284
97	0x3fd29a67d466abed	0.29067416899005033
98	0x3fa1f6a18b583ff2	0.03508477045045301
99	0xbfc51fdfe34a3a01	-0.1650352344335744
100	0x3fdaa1527e53476f	0.4160963281293481
101	0x3fe0ab46b2b9a921	0.5209077349402699
102	0x3fc23e76a3d7ee52	0.1425312328354829
103	0xbf938fb2cae7aed8	-0.019102853426302996
104	0xbfd8e62de2bf43bf	-0.3890490259482781
105	0x3fd6353c19db5aad	0.3469991924770664
106	0x3fd1f3796fd6ed48	0.2804854957755265
107	0xbfac0cc1c43edce2	-0.054784827428585606
108	0xbfc055cdb5f59354	-0.12761851677637515
109	0x3fcad21fd23bc425	0.20953748479181047
110	0xbfd423a35a111e04	-0.31467517657844746
111	0xbfdfe0e2c76074f6	-0.4981009432829774
112	0xbfab21f137f6c010	-0.052993333894278405
113	0x3fc7026fd8efdb8c	0.17976186840652664
114	0x3fc62a04e895f157	0.1731573234245711
115	0xbfd29900e66025a1	-0.29058859346022287
116	0x3fcec8008c55e1a9	0.24047858097379773
117	0x3fd8b74edd113cc3	0.386188236127918
118	0xbfdf9467f76536b2	-0.4934329906435365
119	0xbfac59e92bcf7c3e	-0.05537346515460982
120	0xbfdfb910473791ba	-0.49567038492957816
121	0xbfcac9621771d26d	-0.20927072663075155
122	0x3fd9b26d8d2f6f1e	0.40151537692666917
123	0x3fd55bfc6ac17904	0.33373938012472615
124	0xbfbe56931484d4fe	-0.11850852251957986
125	0x3f7d9b64fee0c038	0.00722827388203489
126	0xbfbcfdb36f2aad51	-0.11324616874724326
127	0x3fe38d101907b4c5	0.6109695900792295
128	0x3fdb0410e25a4064	0.4221231661295006
129	0xbfd54a15fb564dff	-0.33264684242860193
130	0x3fc2b8f7a4069bcd	0.14626975544999113
131	0xbfc4a3b3c085be48	-0.16124579334744937
132	0x3fe03680d7480dd5	0.5066532330242192
133	0xbfd5260cc4ef681b	-0.3304473803706302
134	0xbfc673c206c02320	-0.17540765123001112
135	0xbfba7a696022152f	-0.10343035313606629
136	0xbfd556bd7c7fab9d	-0.3334192004974115
137	0xbfcc4af1ad31ea1c	-0.22103711087022837
138	0xbfd146aeaeb0cb0e	-0.2699391084635615
139	0x3fc7abd5f0f029b4	0.18493150963361205
140	0x3fd059666f5df564	0.2554565513199434
141	0xbfdf763dacb6774e	-0.4915918528221156
142	0xbfca36b6840e30c8	-0.20479470680255063
143	0x3fdb50ed6f6accb8	0.42681442146858783
144	0x3fc056d30de78dd7	0.12764967135363633
145	0x3fde8fe6c99877bb	0.4775330513674551
146	0xbfd247c2fd33c1ec	-0.2856299851109998
147	0xbfae720880d31609	-0.05946375439229363
148	0x3faaffe62cb73a74	0.05273360534521468
149	0xbfa0a9bc1087325f	-0.032544972436515655
150	0x3fceab4f4b127565	0.239602958351422
151	0xbfd35d4432ee052b	-0.30256752942667003
152	0xbfd7c07639c31e87	-0.3711219371875604
153	0xbfb1380a5917d201	-0.0672613589775395
154	0x3fde0e59c0241ad0	0.46962589038632263
155	0x3fbbeaeee8392c7c	0.10905354661479011
156	0xbfcb741b8ab03dfe	-0.21448082229515814
157	0x3fe046c150df9b8d	0.5086371020851047
158	0x3fbc1b25c4b0f275	0.1097892384722828
159	0x3fb4cb1fe0c973b5	0.08122443426095922
160	0x3fd154bc02fce955	0.27079677860060275
161	0x3fc34a8faa352595	0.15071292696874808
162	0xbf9021e452fabe86	-0.015754287304558655
163	0xbfcf09056666b22d	-0.242462801933827
164	0x3f925e20cffc43ad	0.017937195486471037
165	0x3f937babedbbd988	0.019026457200163743
166	0xbfd9d09225d9ad29	-0.40335515686338624
167	0x3fd824956ea2bfd8	0.37723289303084817
168	0x3f9c99a736b794e0	0.027929890360515297
169	0x3fd6ce862046fe93	0.35635522033769823
170	0x3fdf697df92451a7	0.49081372576008636
171	0xbfd34ea42fe88f60	-0.3016748874526822
172	0x3fbaf72f33e83755	0.10533423440230412
173	0x3fdee95023ac7bce	0.48299029811635996
174	0xbfc53d5db977c4f3	-0.16593524509475052
175	0xbf68299f91fb04ea	-0.0029495350462133045
176	0xbfdc7840f534b1ff	-0.44483970590479766
177	0x3fbd9da84079b945	0.11568690847500303
178	0x3fcfa957667cbb56	0.247355389635653
179	0x3fba1bf17beb469c	0.10198888087622965
180	0xbf9dbf74439db439	-0.02905065214820388
181	0xbfd571259d3d3de0	-0.335030940584117
182	0xbfb2cca184e65650	-0.07343492025969423
183	0xbfd9dea878fbd263	-0.40421497168362047
184	0x3fdb5cba216b6d07	0.42753461135517096
185	0xbf65efae0d673633	-0.0026777648410874154
186	0x3f8ff78bc02f0aff	0.015608875086291272
187	0xbfc8c40f83efb3c3	-0.19348329488948765
188	0xbfccae518aada177	-0.2240697791232937
189	0x3fd5c2bf01296ae3	0.34001135934310706
190	0x3fb00720b42e5790	0.06260876082373401
191	0x3fa67067517e32d7	0.043826321313735477
192	0x3fbee926b007d4d6	0.12074510381337986
193	0x3fddc76b502d82c2	0.46529658155308706
194	0x3fa2bc8b0e0a91fe	0.0365947203293082
195	0x3fd775def86c2cdf	0.3665692735673484
196	0x3fcdd462e577b5b4	0.2330440159270616
197	0xbfa95c3ba922a697	-0.049531807323842596
198	0x3fb763ea2fe5be2a	0.09136832875605508
199	0x3fc091edda04388f	0.129453402951587
200	0xbfd8d15ad4746932	-0.3877780031922554
201	0x3fd464aea3d90e41	0.3186451530529873
202	0xbfab2d094a03c51b	-0.053077974591255926
203	0xbfb2656d94cf83b0	-0.07186016924926153
204	0xbfb96d32cf92425b	-0.09932248656901647
205	0xbfd3cf31889b1437	-0.3095210870781701
206	0x3fb0e791065029b2	0.0660334244168215
207	0x3fce44cb9dd1a45b	0.23647446828843752
208	0x3fc10fba289b9c93	0.13329245550923882
209	0xbfd1215fbd958ef3	-0.2676619864853215
210	0xbfcd189ae1d68d75	-0.2273133852696493
211	0xbfd58ffa5de7cfda	-0.3369127194448517
212	0x3fd02da54b49f576	0.2527859912150555
213	0xbfb49cf33d131582	-0.0805198692424565
214	0xbfd12e7ec4938eec	-0.26846284100450535
215	0xbfc7db125d5fe88f	-0.18637303885754306
216	0xbfe011cfcfe4aa87	-0.502174287835559
217	0xbfcc70d9f894f4c6	-0.22219395292078142
218	0x3f5412c4bea2b061	0.0012251778921763756
219	0x3f9bc7b40ff346ce	0.02712899539330387
220	0x3fdc79b2e089243a	0.4449279015285047
221	0x3faed2fa5719521a	0.06020338357180695
222	0xbfc1819a3be8b61a	-0.13676765370603122
223	0xbfd082ee23dad367	-0.25799134732669987
224	0xbfda057b8caed027	-0.4065846322876063
225	0x3fd8fac53d853e36	0.3903058148179953
226	0xbfd6d709a340de9f	-0.35687485640253586
227	0x3fa112867b2386e0	0.03334446194800278
228	0x3fdd7f0339c781f1	0.4608772339106784
229	0xbfc6577ccffcfa09	-0.1745449081008277
230	0x3fb9fb57bf46aeee	0.101491436193722
231	0x3fc6ca452eed022d	0.17804779807376417
232	0xbfc20b2a5d8e0c91	-0.14096574371442164
233	0x3fd864700299e1e7	0.38113022092832555
234	0x3fc9e1fde49df71e	0.20220922148649206
235	0x3fcc0b8d93ac1fec	0.2191025706345039
236	0x3fd26ec9ddf6d883	0.288011996042208
237	0xbfddad3064d94897	-0.4636956200457773
238	0xbfabe85e1a47b848	-0.05450719900896722
239	0xbfb4cc53ca294d64	-0.0812427872236206
240	0xbfd36dd0ac097e70	-0.30357758331772455
241	0x3f9b799eca89418a	0.02683113204176516
242	0x3fd0a16c3fc4bcfc	0.25985246875184465
243	0xbfe0aeb9f09a54da	-0.5213288974070125
244	0xbfc05631adf02ad6	-0.12763043397020252
245	0xbf9bdd89497b1075	-0.027212281331927508
246	0xbfd7eeced09403c3	-0.37395067566836476
247	0xbf1b4ab373623ce6	-0.00010410995750674868
248	0x3fd891f76eadb3fe	0.38390909012269947
249	0xbfb47ade321da1ca	-0.07999981616524746
250	0x3fd9add34f49c562	0.40123446219430126
251	0xbfd39ac32b4ae210	-0.3063209460047185
252	0xbfc270f312f181c3	-0.14407194542856247
253	0xbfd8f03d960cea51	-0.38966312077869697
254	0x3fcb988db788c404	0.21559306584961757
255	0x3fd10a80159bc5a0	0.2662658892650942
