weights/W1.npy (npy, 125568 bytes, 1 tensors)

array f8 [20, 784]
0.3896525461374015 -0.3977905948789481 0.12737541889757553 0.23758819520958085 0.04593481885577355 0.38708200952264393 0.31947259669786665 -0.38791603411070374
-0.43729384349859124 0.4296377582754608 -0.042804917996018044 0.41139848834062875 -0.3527389664974473 0.33180718759444744 0.06720568887000751 0.2350652970124379
0.2211848748649211 0.4216437010593532 -0.46527752935119393 0.3731892298924073 0.40012350864709945 -0.4962441580952496 0.47478251706884733 -0.10097890077889593
0.08078008053347707 0.4478211304571209 -0.25360741662811603 -0.31979341081249013 -0.24343983672156044 0.33563159717010016 0.03443805503920383 0.4502957217776494
-0.011147785106559569 -0.4972058721408501 -0.38134742189202514 -0.42291396610615084 -0.31525065877669145 0.44326343160327003 0.44410666528209464 0.3712264099485392
0.32209797405263174 0.313294950027194 0.2120483345185927 -0.3288810859321952 0.0030244933094283424 -0.26630697314242413 0.3760502997679171 -0.32730080026977176
-0.11413667187680447 -0.0771884128100653 0.3143923554704409 -0.19008001016474013 -0.4211689527753175 0.4575482631214791 0.4830461808853198 -0.3946304331337902
0.26560369802281236 -0.30420444156057413 -0.07810431389557197 0.3112868677303998 0.4422775492450132 0.27142480754382575 -0.1712770545724417 0.27079829000389505
0.3554516931892899 0.18036912677256084 0.15905731919176896 0.06328923876617494 0.4418361257678245 0.0029729506409798072 0.0701735584146987 -0.38826574305057
0.137834401932097 -0.37941946488837763 -0.2848933681390353 0.2917798179949302 -0.0007796279637517498 0.14417970367185157 -0.18499700766791288 0.1766783974781403
-0.23591890027627455 -0.12568842581646955 -0.4344287622679345 -0.2884014892213853 -0.1564777008604764 -0.13851852598063263 -0.11209733305455719 0.4461567368498444
-0.3889412351827679 0.03408931832045596 -0.20917777517556782 -0.05463734771877337 0.2602921829421345 0.26969770297436524 -0.31206578630906107 -0.4342918353512416
-0.18957218876901805 0.21331428901630944 -0.45118255128541884 0.3852323161084334 0.42617615874958803 0.2242205360912802 0.09516709359083197 0.004146413100745694
0.15599850384528094 -0.06103550166399128 -0.204225304147891 -0.04737164755847461 0.448744286019014 0.3615786719180457 0.2086198127569433 0.09133490002287847
0.2455119789675888 -0.22525098105459296 -0.18705488538518814 0.33974323938462025 -0.4614882543963122 0.20932141720980407 0.038861059996847934 0.405739384351713
0.424123614583051 -0.3067480016052297 -0.3574268389241331 -0.04767575773317298 -0.22260739540474006 0.3080095835687099 -0.5136556872311322 -0.04149646418371877
0.318830205317229 -0.044815794001208505 0.3426489651194766 0.1863572649491078 0.06096654843519254 -0.2756932685769363 0.3553391573230307 -0.37397165535191695
0.4808006959849994 -0.08641872886144485 -0.3066281971646883 0.3902266424226456 0.15297248494616456 -0.41698178675957176 -0.14570183317251506 0.16752478310935742
-0.43172251222968666 -0.11480961949725317 0.30797829079736383 0.1528666081632817 0.40300028616610034 -0.5342976870295593 0.25073819219146415 -0.42228755661728584
-0.26854812492730656 0.13556539809001247 0.12927715105522267 -0.25911575032679063 0.4581269209309185 -0.1392202288495621 0.28260518979126054 -0.27178653994758284
0.1290864466455175 -0.14279532773154074 0.20237701648415563 -0.19667089049034042 0.0026483493904148276 -0.025002062663150845 -0.28992835832116876 0.33542805324422975
0.4663910532741449 0.31506613158813257 -0.3331366919655252 -0.02076331792905437 -0.18808613154153997 0.2898760117052254 0.21679824650506715 -0.3087736445917305
-0.49113970863955175 -0.2052742794631 0.07407669024804923 0.2950025958351783 -0.48186154040218465 -0.38550842072679853 0.33115760330966026 -0.3126225058507201
-0.44274396463638654 0.2176474146943582 0.3706331646677351 -0.37580780900504746 0.25886440282324386 0.33214766517221594 -0.25097266118590367 -0.27301429616637674
0.054971413736181356 0.13150137455691963 -0.2096428716663499 -0.2319742382044407 0.31806146964881443 0.4507019495558219 0.20780309772391117 0.12859959679763514
0.46764533398818914 -0.23525364300587542 0.3848198694627118 -0.2785513518169785 -0.2139002227312769 0.26433164445583374 -0.299615351130086 -0.5901153543300443
-0.40197231434611796 0.2057230823723074 -0.38209884780708364 -0.1663277104723666 0.22282569709386013 -0.42452748949378283 0.39422963182418275 0.11160902326217957
-0.41858985178471314 -0.4548937143134528 -0.0027020435896532263 0.27410249660165364 -0.28914267499155555 0.12114176473268255 -0.018246898567845914 -0.2096584477590357
0.19770111702793727 0.23372581704326728 -0.4159244665926454 0.29582029425919765 -0.4188047525887685 -0.35926894323736336 0.4343609795352787 -0.40694735828472944
-0.17582583011858757 0.24433587649395502 0.35035730277613103 0.29505185789829963 -0.18332615483126832 0.2802514321769304 -0.2595897056991184 0.3843153280485031
0.0067977197874047246 0.30408052535834784 -0.45363825091973814 -0.2610226645112916 -0.12472508566654042 0.2693687956279187 -0.4255556230100729 -0.10538303415265377
-0.12220746957739356 -0.48271712769996417 -0.4870471958143167 -0.2771867313451643 0.1121055744781297 -0.055252081394825465 -0.1840429295033152 0.34491964441657225
00000000: 3aa6 9d3b 11f0 d83f 7a55 eaae 6675 d9bf
00000010: 905c 3d75 d64d c03f c89f 2b3c 4a69 ce3f
00000020: 206a 77c1 c484 a73f 0843 f19e f3c5 d83f
00000030: 3446 b230 3d72 d43f 185e 06c6 9dd3 d8bf
00000040: ce63 2451 9ffc dbbf f2de 3a5e 2f7f db3f
00000050: 703d cdb5 86ea a5bf 64ff 4253 5a54 da3f
00000060: 7668 4875 4693 d6bf d7ef d236 543c d53f
00000070: f544 cd5b 6434 b13f b2e5 8ba1 9e16 ce3f
00000080: 8414 f535 c94f cc3f 1051 a7dc 35fc da3f
00000090: b821 0867 1bc7 ddbf 40de 6614 55e2 d73f
000000a0: 1201 00a2 9f9b d93f de68 76db 76c2 dfbf
000000b0: 1c7d e135 d662 de3f 606f 6ed4 c0d9 b9bf
000000c0: 603d 0fdc 00ae b43f 7059 71f5 19a9 dc3f
000000d0: 2636 1c9a 1a3b d0bf ba9e 3ac8 7e77 d4bf
000000e0: 909f a15c 0929 cfbf 8e63 56f3 fc7a d53f
000000f0: 6030 4360 dda1 a13f fa13 a425 a5d1 dc3f
00000100: 05e2 a463 a6d4 86bf cc57 0e94 38d2 dfbf
00000110: 9f2b 5c04 ff67 d8bf fea4 5cbd 0511 dbbf
00000120: 0c41 5f19 112d d4bf f9eb 8f95 6d5e dc3f
00000130: 2c9f d45c 3e6c dc3f 61fd 886a 2cc2 d73f
00000140: 807d 2ad2 409d d43f a499 1743 060d d43f
00000150: 23dd f65a 6624 cb3f fa82 1641 630c d5bf
00000160: 151c 3b7b d2c6 683f 48fb 1567 2c0b d1bf
00000170: 6bde c946 3511 d83f 4540 470e 7ff2 d4bf
00000180: 5333 fc98 0f38 bdbf a23d a6ac 9ec2 b3bf
00000190: a9e8 361d 011f d43f bef4 a3b1 8a54 c8bf
000001a0: f8ac 909f 6ef4 dabf dcb1 9c82 7848 dd3f
000001b0: ae0c 5787 3aea de3f 6c38 1401 a041 d9bf
000001c0: ce18 2da7 a6ff d03f 2e3d f3e7 1578 d3bf
000001d0: e3a5 dbf1 a4fe b3bf d6e2 24c1 1fec d33f
000001e0: 87ca 707e 464e dc3f 2953 ee27 065f d13f
000001f0: e4cf f811 68ec c5bf f548 d859 c254 d13f
00000200: a792 6375 b8bf d63f f61d 59e6 5516 c73f
00000210: 461d 0f80 fd5b c43f 3d80 b03a b933 b03f
00000220: 384e 9707 0b47 dc3f 13f7 d1b8 ba5a 683f
00000230: 2d61 6ff2 e4f6 b13f 2fcc 238f 58d9 d8bf
00000240: 1af2 47c4 8ea4 c13f 6a54 4a94 6848 d8bf
00000250: d448 c064 b13b d2bf 9bf2 fa41 85ac d23f
00000260: feff bd4d fe8b 49bf da3f 0204 7b74 c23f
00000270: 6a51 e560 fbad c7bf c805 8ad1 659d c63f
00000280: faf1 982c 9732 cebf e408 2fef 8e16 c0bf
00000290: 7e7b 984b aecd dbbf fcb4 1485 2b75 d2bf
000002a0: ccdf df17 7607 c4bf 7c0c 7d9d f9ba c1bf
000002b0: 222a 702b 69b2 bcbf 0f40 6afc d48d dc3f
000002c0: d840 4bc7 69e4 d8bf f698 a8b6 2774 a13f
000002d0: e5ec b65b 56c6 cabf 7f43 2f2b 6df9 abbf
000002e0: c804 498b a0a8 d03f b832 8527 ba42 d13f
000002f0: e177 99c6 e2f8 d3bf b237 70fb 6fcb dbbf
00000300: b83d 7fc7 e643 c8bf ec19 8cf3 e14d cb3f
00000310: 68fd 92c7 2ce0 dcbf 5713 c371 a5a7 d83f
00000320: 4885 0a5e 7846 db3f f343 cd2e 42b3 cc3f
00000330: 40c4 a0e2 de5c b83f 7352 9d4a d4fb 703f
00000340: d1c5 1e4c c2f7 c33f 4d66 1597 0b40 afbf
00000350: 2159 2a05 0e24 cabf 17e6 0aba 1841 a8bf
00000360: 7bfc 2df4 39b8 dc3f 766c b4de 1a24 d73f
00000370: 045b 8bd4 0db4 ca3f d0e9 9458 b961 b73f
00000380: 9094 38c0 ef6c cf3f fcbc 822e 06d5 ccbf
00000390: 21a9 a41b 6af1 c7bf 346b 8c6d 5abe d53f
000003a0: d1b2 0708 0689 ddbf 8e5d a250 0bcb ca3f
000003b0: 5b78 8ccb 98e5 a33f 9458 9f52 a2f7 d93f
000003c0: e11c 865f d724 db3f 1380 c05e c2a1 d3bf
000003d0: 7013 f9d1 14e0 d6bf 7c4f 8df8 f468 a8bf
000003e0: 8038 8e2d 667e ccbf 5e0f 12d4 6db6 d33f
000003f0: defc 410d de6f e0bf a02d 2349 063f a5bf
00000400: 2d20 34ce b667 d43f 71af 2883 18f2 a6bf
00000410: c491 ccec f5ed d53f d509 2a0b 8eda c73f
00000420: cdb9 5be7 0137 af3f 72fa 1061 f5a4 d1bf
00000430: 0c33 ec72 e0bd d63f 9384 57cf 26ef d7bf
00000440: 3a93 4948 70c5 de3f afc7 38ae 891f b6bf
00000450: 45a4 b6df cb9f d3bf eaeb ce2a 79f9 d83f
00000460: 6c0c 0436 9a94 c33f 8c3d 4a60 d4af dabf
00000470: c8ba 3890 5ba6 c2bf 0ab2 5cbc 7371 c53f
00000480: 3d4d be75 57a1 dbbf 9dc4 01c9 2964 bdbf
00000490: e891 b693 eab5 d33f 591a 5b0d 2291 c33f
000004a0: b32b 57b6 c1ca d93f 52da 8376 f718 e1bf
000004b0: 1783 d433 180c d03f 9774 4b63 c206 dbbf
000004c0: fdc0 7d79 e42f d1bf 8906 a2fb 345a c13f
000004d0: 617c f357 278c c03f 630d 623a 5a95 d0bf
000004e0: b530 b493 f351 dd3f 58dd ecec f7d1 c1bf
000004f0: 6555 f513 3416 d23f ea57 245f f364 d1bf
00000500: 3084 5999 e785 c03f f674 5007 1e47 c2bf
00000510: e078 a175 7de7 c93f 4698 5d01 832c c9bf
00000520: 3296 a5c0 fdb1 653f fc12 e205 249a 99bf
00000530: 6d08 4bac 2f8e d2bf 1013 b639 a777 d53f
00000540: 9067 3ddc 59d9 dd3f 86e3 cf22 0b2a d43f
00000550: 4cbb 458f 1c52 d5bf 1ad2 d8ad fa42 95bf
00000560: 2caa e6d3 3413 c8bf 8bce 8a1d 548d d23f
00000570: 6be2 4881 0bc0 cb3f 6ed8 5888 f2c2 d3bf
00000580: 0ded 973e d56e dfbf 6282 8076 6d46 cabf
00000590: 23e4 02a2 b0f6 b23f 7838 5691 52e1 d23f
000005a0: 7090 4ec9 d1d6 debf 59ab d682 2bac d8bf
000005b0: d259 02a9 af31 d53f 97d5 a7d3 0102 d4bf
000005c0: 9a56 27c8 ea55 dcbf 7bea 15d8 dedb cb3f
000005d0: dee5 432a 74b8 d73f 9984 5032 3c0d d8bf
000005e0: 9c5c 0e00 3c91 d03f 10e0 d647 e841 d53f
000005f0: 66f2 fea2 ef0f d0bf c200 58f4 1079 d1bf
00000600: f76e 6c90 3625 ac3f 1aee 8c7b 09d5 c03f
00000610: 71c0 d2de 93d5 cabf 8f21 4df3 54b1 cdbf
00000620: 4499 907e 1e5b d43f 0e7c 65fd 4cd8 dc3f
00000630: 09a8 5dba 4a99 ca3f 0d27 439b f375 c03f
00000640: 1fcd e6b1 e6ed dd3f e2cf 7c97 ca1c cebf
00000650: 9f5f 8c84 e3a0 d83f 71df 930c c9d3 d1bf
00000660: 2675 9e1e 1561 cbbf cd15 0f46 cfea d03f
00000670: ffed 9edd e52c d3bf 37e1 7698 39e2 e2bf
00000680: 83e5 0016 eab9 d9bf cc22 694b 2255 ca3f
00000690: d7ec cab9 4e74 d8bf 10dd 72f6 394a c5bf
000006a0: fcfe dc6c 8d85 cc3f f23d e858 752b dbbf
000006b0: 9522 f3eb 0e3b d93f 0f7d d9b0 6892 bc3f
000006c0: c594 f616 2dca dabf bc76 8886 fa1c ddbf
000006d0: 379a 329b 9822 66bf c8fc a932 e58a d13f
000006e0: 38de 3d47 5081 d2bf 97e3 b48d 2503 bf3f
000006f0: 86c8 68a2 50af 92bf 6e43 3a88 16d6 cabf
00000700: a942 022c 454e c93f 5a42 3742 baea cd3f
00000710: 39c9 67a7 819e dabf c486 553e b8ee d23f
00000720: eacc f172 b2cd dabf b611 6b2a 43fe d6bf
00000730: 93cd 70fe 91cc db3f 4db2 c1ee 6c0b dabf
00000740: 9960 13f7 7581 c6bf dbf8 63e3 6546 cf3f
00000750: efa5 5509 416c d63f eb05 1330 21e2 d23f
00000760: af38 c03f 3b77 c7bf 5eda f6b3 a3ef d13f
00000770: 59c8 1624 1e9d d0bf 2278 5451 9f98 d83f
00000780: f7d4 c902 edd7 7b3f 40ef f029 0e76 d33f
00000790: 018e faba 6808 ddbf 4bcf e567 98b4 d0bf
000007a0: 0ab8 edb3 fbed bfbf 783a f29d 563d d13f
000007b0: 3e42 dda6 4d3c dbbf 7c28 3ded 61fa babf
000007c0: 0e6d 291d fd48 bfbf 8b2f 2c61 d6e4 debf
000007d0: 4762 6800 c82b dfbf bfce 806a 6dbd d1bf
000007e0: 4536 1570 f3b2 bc3f 89df 4035 004a acbf
000007f0: 466d a3fd b78e c7bf 9b18 21d8 2913 d63f
