weights/W1.npy (npy, 62848 bytes, 1 tensors)

array f8 [10, 784]
00000000: 9824 97b8 29d2 c83f d0ef b633 7a53 bbbf
00000010: 241e 25ae 66d9 d33f 002c 016f c5ec 463f
00000020: a4f5 bd02 2b82 c8bf 68d1 fe78 6988 d5bf
00000030: 4057 ff55 8a4f 86bf d844 e1fe e9c8 b4bf
00000040: 08a6 afb6 a020 c23f d406 2517 d500 d33f
00000050: b0f2 cc11 3a02 cf3f 80cb 3b87 8daa cabf
00000060: 537d 9150 d7dc b8bf 862a d6ee 87b6 c93f
00000070: 2f51 5da9 5548 d4bf 6e32 0be8 ac5f d5bf
00000080: aeee e162 afef d33f 4640 40ce 51e8 da3f
00000090: 7a09 2229 633d debf 1cbc 5fef 7b3e c13f
000000a0: 2eaf 4b23 a199 d13f e8bc 6a1c 0de4 c93f
000000b0: 2866 979d 7f8d b43f 6611 a727 89b9 d0bf
000000c0: c0a6 855b 99fb c33f 6ec9 8bcc 4d21 df3f
000000d0: 98e6 942f 1607 c3bf 8eab 3bc6 9e3c d7bf
000000e0: c0c8 882b 95c3 9c3f de73 c0f1 3140 dcbf
000000f0: e0a5 0568 5929 af3f 4070 ea02 9736 953f
00000100: 8ff7 13b6 dc1c dfbf d17e 5744 4fab cbbf
00000110: b620 33ea 07d9 c3bf 011a dfda be37 c73f
00000120: b08f 710d c0a3 cbbf 2806 2cbd 1984 bc3f
00000130: 9a5b 8572 cff8 d5bf ad1f 852b f1a8 c2bf
00000140: 9004 8532 f307 d1bf 21e2 fb07 6413 d33f
00000150: aa65 f3b6 cdba d63f a477 4a88 4575 d2bf
00000160: ec39 1fee 47bb c93f 7f8b 69a7 935b d4bf
00000170: 9287 131b 5a52 dabf 0010 174e e29f debf
00000180: d3c8 a7c0 bbf2 c53f 2c52 a845 f0cd c23f
00000190: 9de1 8e15 0929 d43f 632a b02f 668e d0bf
000001a0: ecbe 78c4 9c30 c2bf 18a9 e0c5 2a32 dabf
000001b0: 4814 6ba9 8a27 cfbf 2484 0963 a888 d9bf
000001c0: f8b5 5655 c24d ccbf 6c19 aef4 a9f0 c73f
000001d0: 7cd6 4f28 3689 84bf 9f1a 2299 022e ac3f
000001e0: 9ed3 8ca3 9748 5d3f ba3f b114 b8e1 96bf
000001f0: 17a4 a0f0 29d9 d23f 6c59 8b55 da1f cabf
00000200: 8aef 0873 ff57 b03f fa9c deec db60 ccbf
00000210: b1e6 c186 4e6f d9bf f4ea ce93 61a1 dd3f
00000220: 6e8d 82d3 62ee 9a3f dde6 ce6b cf34 9bbf
00000230: f822 f8c4 fc87 c4bf 96ad 0a49 2bb2 443f
00000240: 6d53 796b b25a d4bf 90aa f8e0 1bd7 d63f
00000250: 3775 c83f a7ef d2bf c9c1 d599 08ef d0bf
00000260: 61ac a680 4b78 d8bf fbe5 dd76 79d5 d03f
00000270: bbb1 c561 1fe9 d93f f126 cc12 83b5 ddbf
00000280: df47 5b00 1751 8dbf aeb2 6526 5cf1 d03f
00000290: 88c8 76a7 5b1d b23f f4c3 092a e99b dfbf
000002a0: 1421 6a97 bf45 d53f 8805 7483 8c39 c63f
000002b0: 69ee 3f23 f5df debf 8109 451a cb41 9bbf
000002c0: ade0 6663 75d7 dc3f 6cbb f4ff 4463 cd3f
000002d0: 9a4d 00ee 94e0 943f 39dd 873f 911a d1bf
000002e0: 4744 e689 d1be b93f 07f9 fd7e 80e3 d93f
000002f0: 9983 bbda 6c86 d63f 4f71 268b 8be0 cebf
00000300: a80a 514b dd5a da3f 174e 84f6 2197 a8bf
00000310: 4f02 9abe 01e1 d2bf ea7b ed91 b5f0 db3f
00000320: 9e4c 561f 7704 ccbf e9a8 12fb 34de d03f
00000330: 2e5f d973 882c dbbf 1f5a 4d1f 4284 ca3f
00000340: 7b59 8093 570e b73f 335d b804 a4a8 cabf
00000350: 1fe3 4059 f6e4 b9bf 6c59 8a1b d086 c83f
00000360: 5f2f b0f5 a878 a03f b734 5ed4 0f9c c6bf
00000370: b723 3e99 eede c3bf 0072 5f95 affd c9bf
00000380: 60be 6b8f 9218 b8bf a0e7 0b40 87f9 d93f
00000390: 2bf0 cef3 728d d93f 4212 ca7a 1089 d93f
000003a0: 41da 42e1 0986 dd3f ee66 aae9 9cd1 b9bf
000003b0: 170b 8e66 b590 d0bf a553 6405 00bc dc3f
000003c0: bbbf 18c6 54ef d6bf 1b1b 867c 574a d83f
000003d0: 6f35 55a7 08ba d2bf 3e7e 9329 0e5b c93f
000003e0: 9e74 cbe8 780d cb3f e082 c91e 5cc6 cb3f
000003f0: c7de c854 066f a93f 53e8 10aa 22b1 a03f
00000400: 3144 d80c 3930 a6bf 4809 fe6d bafd cabf
00000410: 0485 8c7d 5f27 dd3f 3107 36e3 17aa 91bf
00000420: 505b 7527 44f0 b63f 06b8 f7be 5f57 d53f
00000430: 4a36 274b b601 c53f 8540 0af5 ff0d c0bf
00000440: 43d7 74b1 36d4 cb3f 8c52 76f6 5c90 d0bf
00000450: 959e 7f5d 7045 c73f 629c ab0b 100e d33f
00000460: d086 8b78 7a7c bcbf bcc2 770b e363 d73f
00000470: 21d0 9514 8839 d33f f26b dc02 4253 a3bf
00000480: 11c0 cd58 6235 c23f 0e79 ab35 11c7 953f
00000490: 5476 a7a4 8945 cc3f 848d 9bea d5af d6bf
000004a0: 5f7c 7c15 600b cebf 5c7a 57fe d973 cdbf
000004b0: 56a5 bea5 634c d73f 54e0 83c7 729d d43f
000004c0: 371c 374f 60c4 cfbf ade8 2081 5707 9fbf
000004d0: 9297 683e 3ebc d13f e17b 8b77 682c b5bf
000004e0: 9814 fbd8 d4b8 d3bf e8c4 d1d9 29b3 d13f
000004f0: 808d d7f9 3c03 babf 7042 26f0 cfc1 d7bf
00000500: 1c9e 5a8c ada8 d4bf 063e d349 51ee d03f
00000510: e15f 2414 82b3 ca3f 547b d203 2d30 c33f
00000520: b144 c098 3766 d6bf a138 bd06 ef75 c0bf
00000530: 6882 6025 cb4f bd3f d6de ca95 7ee1 d33f
00000540: ba45 a6c4 665a db3f 06ef b75e 4933 d83f
00000550: 3da4 c84e 8e35 c4bf 6cf3 c3b3 37c0 c6bf
00000560: 3979 76e4 f006 cc3f 3c43 1edb 59cd bb3f
00000570: 2ac0 54d9 6e47 d83f 308a 2772 5402 d53f
00000580: 0294 637e 3502 dd3f f2ac 7dc8 8e97 bfbf
00000590: a66b 8f85 6ef8 e13f 3a0f b51a 316a bcbf
000005a0: f960 edfd ed06 db3f ce68 1c0a 0c35 e33f
000005b0: cc3e 1c85 bc58 df3f e912 c5e7 9f74 e23f
000005c0: e815 2114 b0de c03f 2bad 5cef 3b69 dc3f
000005d0: f378 194c 838e d13f f875 d615 d8ea d43f
000005e0: bf4b 1cfb cbc1 ccbf c691 0052 23c4 b83f
000005f0: de11 1956 f95e c73f b655 f473 c4d2 c7bf
00000600: 57b6 4727 cc2d c8bf da3a 63e4 d02f d5bf
00000610: 014f cf14 ef53 c9bf bd40 c832 2bdd 93bf
00000620: c046 6983 277a 81bf a7eb 9223 7f64 a03f
00000630: 2c4f 1985 7e70 d73f f6be 9be8 5f8f d5bf
00000640: b8f4 70c5 45b6 c9bf bc4f 9307 f3ae ce3f
00000650: 8f08 13d8 d988 d93f 55e0 83de 8586 c3bf
00000660: bdbc ae28 94a8 c13f 8f91 d7a6 909c 88bf
00000670: 9fbf 4e55 fd0f d2bf 6564 a6ac 0197 cb3f
00000680: df17 2972 eee6 b7bf 0559 7655 b98e e03f
00000690: 557e 8b86 6e2a d73f 315d ed4d e17d 993f
000006a0: 6b66 2c3d 8067 d73f fa4e 347c eed5 b6bf
000006b0: f8af a865 fbad c13f 060f bdbe 84a4 d3bf
000006c0: 6829 616c dd02 c23f 67f3 c160 0277 d2bf
000006d0: 011a 3ec9 5217 c53f 3e2a 37e4 a6ec 8fbf
000006e0: 414e 5ed4 9e45 74bf 153b 3f80 bc55 b93f
000006f0: a4ac b7dc 4722 dc3f fe1b 21c1 2a32 d43f
00000700: 22cc ca9e d0cb dd3f 6278 f344 84ec d53f
00000710: 6132 b605 c643 b43f a9dc 3139 1f77 d0bf
00000720: 8e34 d086 c119 d03f a4cd 7642 a250 d93f
00000730: 9faf 39c2 7370 923f d350 534f ddcc d3bf
00000740: 589d 5b88 64d5 d53f 5ff7 a4c7 a784 d6bf
00000750: c890 ea10 944f d2bf 2661 d351 f2c4 e13f
00000760: e3cb 732b d975 af3f 380e 5577 a7c5 e63f
00000770: 336a bee9 5ff3 e23f d180 2212 f47d e93f
00000780: 9280 d136 8e8a e13f 9b4b 1249 8814 e23f
00000790: 8be0 c18c 4ac9 d53f 35c8 d962 f22b cd3f
000007a0: ca37 1d59 3f2c d6bf d586 7833 b70a a4bf
000007b0: 2f53 4869 c1da cdbf 32a5 808f 5b77 c9bf
000007c0: 63e8 f461 017a b83f af92 ced4 e854 dabf
000007d0: 58b8 3724 c463 b2bf 0932 d470 7777 c13f
000007e0: 6f37 8b8b a03b cc3f 3f09 d876 bb05 c23f
000007f0: 70d1 dba8 1fdc dd3f 2604 07dc de92 cd3f
0.19391366494372586 -0.10674251329959294 0.3101441097864799 0.0006996120482737345 -0.19147241243255764 -0.3364509278865371 -0.010893898724969042 -0.08119070503859704
0.14162072105618528 0.2969258047124701 0.24225545758408407 -0.20832985976411678 -0.09711976735115017 0.20088290368979161 -0.31691495456222446 -0.3339645639469272
0.31150421768664216 0.4204296602411016 -0.47249678627863256 0.134719364053553 0.2750017971691133 0.20227207076593534 0.08028409573980666 -0.26132420418095703
0.15611569374896384 0.4864077088851876 -0.14865376780817452 -0.3630749641294465 0.0280898387738453 -0.44141815765925496 0.060862344692235615 0.02071605639740448
-0.48613660603575054 -0.2161654552173702 -0.15506075797589397 0.1813887184818697 -0.21593475967813225 0.11139069431740067 -0.34331117805180045 -0.14578070282936775
-0.26611022885851643 0.29805851726226434 0.355151585257398 -0.2884076910939888 0.20102786185311972 -0.318089402664718 -0.4112763657013768 -0.47850854516968866
0.17147013575556133 0.1469097461819201 0.31500460725103513 -0.258691355295616 -0.14210853188841754 -0.4093119556806797 -0.24339421532036654 -0.3989659278068436
-0.22112301985673333 0.18703197905797297 -0.010027335267277275 0.05503852958013521 0.0017873268936458918 -0.022345424902880252 0.29450462816981954 -0.2040970723816814
0.06384274061650622 -0.22170590463540646 -0.39741862449555315 0.46297492441560384 0.026299995574516392 -0.02656864257344337 -0.16040000550881195 0.000631590972337492
-0.31803570266247655 0.35687920541628504 -0.29587727764904365 -0.26458945296238007 -0.3823422199590763 0.26302944763264663 0.4048536734396994 -0.4642036136216197
-0.014314822862988961 0.26473144292576023 0.07076046789623736 -0.49389103989875527 0.332382104745663 0.17363125246633282 -0.48241928522450067 -0.026618169287084385
0.45065054614270644 0.22959196565485784 0.02038796141284891 -0.26724654392406283 0.10056790939985759 0.40451061631746693 0.3519546638545364 -0.2412275723880932
0.41179592471250226 -0.04802805074919208 -0.2949833260863998 0.4365667271685526 -0.21888627081043394 0.2635624362834635 -0.4245930796946479 0.2071612027018128
0.0900625929938083 -0.20827150564648775 -0.10114993742980659 0.19161416382548724 0.03217056273578466 -0.17663762921839574 -0.15524084551387116 -0.2030543784484422
-0.09412494660841153 0.40585500006238284 0.39925836381348984 0.3989907454600009 0.4613060664954994 -0.10085468964316721 -0.2588323117744706 0.4489746143965994
-0.35835761399630045 0.37953745995075544 -0.2926046022519903 0.19809128789982994 0.2113486420338732 0.21699096205977408 0.04967517647713531 0.03260143590928579
-0.04333666116520652 -0.21086817141265102 0.4555281377852938 -0.0172504169872873 0.08960367167797512 0.3334578862112497 0.16411474866474612 -0.12542724099012417
0.2174137464987159 -0.25881122654508526 0.18180660786969285 0.29773331775363066 -0.11127438967698855 0.3654716121664412 0.30038644800447584 -0.03774458203243815
0.1422541555034518 0.021267193699594115 0.22087212123635658 -0.35448215399647887 -0.2347221474564973 -0.230098008337296 0.3640374296761214 0.32210988506222304
-0.24818042629178347 -0.030301444298154113 0.27711444944940766 -0.0827088634355131 -0.308156215567871 0.27656027099062763 -0.10161191081674836 -0.37120436145872926
-0.32279528337901 0.2645457478474501 0.20860315307140723 0.14990770994787772 -0.34998884121985 -0.12859905079898673 0.1144988027813355 0.3106380904023188
0.42739266590168834 0.3781302857384933 -0.15788439604628648 -0.17774101522072827 0.21896182208451778 0.10860215758863218 0.3793599245427709 0.328267203787763
0.4532598242061 -0.1234063376884256 0.5615761383627287 -0.11099535848648837 0.4222979526289375 0.6002254674415555 0.4897910404115293 0.5767364050630849
0.131795892552119 0.44392298102566724 0.27432329589454624 0.3268337453135639 -0.22466420899635683 0.09674282791144781 0.18258587554932054 -0.18611961042249242
-0.18889762800192741 -0.33104345611074637 -0.19787395969489555 -0.01939837930154974 -0.008533772180416732 0.03201672848941622 0.3662411021989438 -0.3368758937422024
-0.20087501660046825 0.23971402997869784 0.3989777193165844 -0.15254281392094762 0.13795711504415023 -0.012017374126067874 -0.282225926693167 0.21554585390257155
-0.09336748396989901 0.5174223584351983 0.3619648279109005 0.024894256955431963 0.36569219564407857 -0.08920183689434316 0.13812200988593282 -0.3069164145165221
0.14071243087739593 -0.28851375054346423 0.16477427316949902 -0.015588096465667719 -0.004949207714065874 0.09896448260336073 0.4395923285907861 0.31556195125853026
0.46556487566994254 0.3425608323431161 0.07915914191671326 -0.25727062783648563 0.25157201924668804 0.3955464982093082 0.018007096032689792 -0.30937893625856566
0.34114945713232236 -0.3518466424610462 -0.28610707904796273 0.5552913282545304 0.06144598632263134 0.7116277056415532 0.5922088208492994 0.796625171107758
0.5481635161086322 0.5650063922097276 0.3404108404715848 0.2279036505383957 -0.34645065023948673 -0.03914425376230005 -0.23323838845012676 -0.19895500666579263
0.09561165467758452 -0.4114324644272455 -0.07183481106014378 0.136458330242377 0.22056967557585547 0.1407999353687703 0.46656028261283833 0.23104463332677588
