weights/W2.npy (npy, 1728 bytes, 1 tensors)

array f8 [20, 10]
000000 d5 ec c6 bb c4 4f d6 bf d8 03 88 cc 52 7c df bf
       -0.34861868226626075 -0.4919631001831113
000010 9d 27 4d e0 43 bd d9 3f 2e 11 47 e9 30 bb c4 3f
       0.4021768274729938 0.1619626177836237
000020 ab 60 eb b5 82 84 c0 3f b5 be c8 be 2e 36 be bf
       0.12904390223298398 -0.11801426084343343
000030 f7 d6 fd e5 e9 b4 dc 3f c0 4b f0 c8 dd a4 b7 3f
       0.4485420938502637 0.09235941081742194
000040 2e e6 eb 5b 79 a8 c6 3f 55 b2 dc ab bb 64 e7 3f
       0.17701642025331082 0.7310465199166837
000050 6f b0 59 6d 31 98 90 3f 1f 7c cb 3b df 1c d9 bf
       0.0162055705063015 -0.3923872074064451
000060 d0 63 e5 03 79 61 d5 3f d1 f8 d8 55 3b 2f e5 3f
       0.3340742624328046 0.6620155979833503
000070 10 c4 7c 89 99 0e d8 bf cc e2 20 88 43 16 b6 bf
       -0.37589109827519085 -0.08627721856545206
000080 b3 cf e1 b8 71 d4 cb 3f 4d e1 7e c8 fd cf c8 3f
       0.2174207833046445 0.19384739198518233
000090 b4 61 18 d6 f5 94 c1 bf f3 6d c3 d8 6c a7 ba 3f
       -0.1373584075343054 0.10411720554423436
0000a0 7d 72 6a 20 b6 5a 67 3f e3 4e e4 9a d7 f3 a6 3f
       0.002850871769011497 0.04482911840218919
0000b0 46 41 45 b9 57 7d c6 bf 84 4b e5 27 2b 65 d0 bf
       -0.17570015474712813 -0.25617483993590207
0000c0 6a 05 2b c8 1d 42 d2 bf 76 69 ae bc f2 09 d4 3f
       -0.2852854208723189 0.3131071894255436
0000d0 ee fd 9f e6 3c 46 7b 3f 96 63 69 82 27 fa b8 3f
       0.006658780950601335 0.09756705221060566
0000e0 20 d7 f0 0b 3c 7b cd 3f f8 99 4a 6d a6 36 c0 3f
       0.23032332022710822 0.12666778885359498
0000f0 82 20 18 f5 8d 56 d3 3f fc f3 7c 84 07 85 d5 3f
       0.30215786871895756 0.33624446810046016
000100 02 13 99 0b 9e c8 cb 3f 14 b8 0b 84 10 2a da bf
       0.21705985609346362 -0.40881741423697915
000110 11 a9 52 7a ed 73 db bf b6 6b 22 80 40 0c e2 bf
       -0.428950662094068 -0.563995599997148
000120 0a ea a3 cd b1 31 d3 3f f2 5a c6 3e 6f 6e c5 3f
       0.2999081142621952 0.16743269505669606
000130 e2 4d 97 b9 80 75 d3 3f 45 b1 a4 48 ae 6a a3 3f
       0.3040468037044929 0.03792328488120459
000140 b0 4b 93 f2 01 3d d8 bf 89 b5 98 a4 ab 84 d0 bf
       -0.3787236088657506 -0.25809756349448115
000150 ec 1c 2b 45 3c 1c e0 3f 1c c9 15 b0 79 11 c1 3f
       0.5034467078156957 0.13334580514817496
000160 7a e5 d9 80 c8 3b bd 3f 94 50 c1 92 5f 3e bb bf
       0.11419346948414058 -0.10642049153222138
000170 d4 e0 df 76 a0 48 d1 bf 51 e9 40 dc 20 fc d6 bf
       -0.27005778893318433 -0.35913869389664393
000180 59 4a 8f 6c d5 ff c4 3f ad fa d0 59 54 4a be bf
       0.1640574245526121 -0.1183216780927789
000190 32 f5 47 99 e3 9c e0 3f e3 fb 93 4c fa c0 cc 3f
       0.5191514962931818 0.22463921298182674
0001a0 73 bd 56 a7 e7 8f c5 bf e2 79 3e 8f 30 4a d9 bf
       -0.16845412894097542 -0.3951531790607118
0001b0 13 cd e6 76 e6 ef cc 3f f6 32 be b8 b8 11 b7 3f
       0.22607117467632828 0.09011415968252465
0001c0 42 59 97 8e c0 b8 da bf ce 57 57 9f 29 9d c6 3f
       -0.4175263779155963 0.17667122154551723
0001d0 8c 47 bd 00 f7 c9 d1 bf 58 12 a6 23 85 db db bf
       -0.2779519564838828 -0.4352734420902258
0001e0 68 29 c8 30 d6 6d c8 3f f8 ae ca 96 07 ff 65 bf
       0.19085194951942275 -0.0026850841735120944
0001f0 46 d6 e2 1e 1c 70 d3 3f e5 75 f4 e6 81 b3 c7 3f
       0.3037176419851203 0.18516563202949424
000200 1c 52 4a ec 75 66 d7 bf 18 13 56 a7 03 57 d4 3f
       -0.36562870097375977 0.3178109296934948
000210 f8 ce 8c 0a 2f 7b de 3f 94 76 fe 19 a7 61 d3 3f
       0.47626853971745176 0.30283525026775604
000220 14 77 11 c9 aa 7a d6 bf e4 86 9a 7b 08 86 e1 bf
       -0.3512370074803226 -0.5476114668019503
000230 88 6e 72 e8 33 57 cc 3f e2 fd 41 34 29 c0 e1 bf
       0.2214112172122109 -0.5547071476611871
000240 49 87 35 45 16 3a ce bf ea 3d 7c 64 25 ce d6 3f
       -0.23614767436361664 0.35633215725917344
000250 37 19 20 7c 5a 7f d7 bf 10 ed b7 c6 c6 32 d2 bf
       -0.36714803811664204 -0.28434914976215087
000260 f2 16 ec 02 3b c9 c9 3f 78 65 90 fa fc b5 de 3f
       0.2014535679119756 0.47985767811913815
000270 88 f3 52 bd 1b c6 ca bf 4f 1b 17 71 c7 7d ba 3f
       -0.2091707872804387 0.10348173628800093
000280 f1 7f e2 bd ff 09 b5 bf 8b 4e bd 72 04 50 e9 3f
       -0.08218382249697222 0.7910177460675681
000290 e5 12 00 bd 74 8d ce 3f eb 29 8b 9c bd 19 c5 3f
       0.23869189480333045 0.1648480429051483
0002a0 b5 78 23 50 b0 e8 c2 bf bc 86 4f d4 58 88 d1 bf
       -0.14772609627738623 -0.2739469598146618
0002b0 04 cd 4d 75 a3 26 d4 3f 02 3f ce 1b 44 a0 cb 3f
       0.3148583074136726 0.21582843167970372
0002c0 19 5d 49 64 47 57 94 bf 28 3b d4 05 8e 84 dd 3f
       -0.019864192482001195 0.46121550149193746
0002d0 8f 52 81 b4 f2 54 c2 bf 0c 25 d6 69 1a 11 c7 3f
       -0.14321740926483925 0.18020944755361545
0002e0 1e 1e 38 fe bd 3c d8 bf 14 ed 0a 47 25 40 d4 bf
       -0.37870740724653895 -0.3164151376510784
0002f0 e0 64 81 b7 62 e6 d4 bf df 63 fc 54 52 e6 d7 3f
       -0.3265616218610159 0.3734327154102725
000300 c8 08 c6 c5 b1 d2 d3 bf 96 3e c4 b3 88 0b c7 bf
       -0.30973476709199277 -0.18003948953309096
000310 f3 33 1e 5c d7 cd d5 bf 8f 42 f5 09 30 f5 e1 3f
       -0.3406885528173113 0.5611801332944014
000320 c3 f5 e2 36 3d 85 b7 3f 13 0c 90 92 65 cd d4 3f
       0.09187681760791748 0.3250364238048757
000330 55 09 9c 82 ec 24 d8 3f 05 48 98 49 2d 8b dd 3f
       0.37725365404926 0.46161968409535376
000340 fb c7 5d a1 3b 36 da bf 39 2c 35 0b cd ff d9 3f
       -0.4095601154177754 0.40623785109045546
000350 a2 a8 a3 02 c6 f7 bf bf 11 bc 2b 6e 91 c1 bc 3f
       -0.12487447323261106 0.11232861461370215
000360 dc 2b c0 f4 e1 47 d6 bf ee af e7 81 fd 0c bf bf
       -0.34813736821587127 -0.12129196568974951
000370 78 73 8a ca f8 fe c8 bf ee 07 f4 55 f9 65 94 bf
       -0.19528112306297962 -0.01992024981610279
000380 cf 00 71 2f 3c b3 cb bf cd 35 31 28 ec 00 81 bf
       -0.2164073211333801 -0.00830254075676864
000390 38 ea a8 bc ea d9 d6 3f 38 4a 90 1f 80 76 de 3f
       0.3570505945569127 0.4759826954115485
0003a0 32 96 6c 37 4d 46 9a 3f a9 5a 35 d7 60 fe d2 3f
       0.025658804424116784 0.2967760182995485
0003b0 60 f5 f2 51 dc 0e d1 3f 56 e7 16 08 57 1c e1 bf
       0.26653202059590875 -0.5347094686505709
0003c0 40 e6 94 b2 40 35 78 bf 25 c0 4d 53 71 8e d8 3f
       -0.005910160756053495 0.3836940110695671
0003d0 bf 45 97 39 e7 88 cc bf 6c 38 02 e0 95 5a da bf
       -0.22292795478874258 -0.4117788970551206
0003e0 f5 d8 74 35 d7 f1 d2 3f dd d7 82 a1 98 5e a8 3f
       0.296010782435942 0.04759671184130785
0003f0 21 81 48 3a 26 b2 db 3f a4 f2 8f be 41 38 b4 bf
       0.4327483719989847 -0.07898341085815247
000400 cd d7 42 37 e8 90 b3 bf 45 b6 be d4 b8 b4 d7 bf
       -0.07642985676906662 -0.3704053952777467
000410 28 38 4e 2d f2 3a c1 bf e2 60 31 51 36 ef c2 bf
       -0.1346113892763594 -0.1479251762818939
000420 a2 1e 2c 38 3b 2d d0 bf 54 c0 b4 1b 77 35 e8 bf
       -0.25276070104198756 -0.7565265217908839
000430 1f 68 62 1b bb bd cc 3f e7 50 c0 12 9b 8e cc 3f
       0.22454012715462654 0.22310198226535435
000440 ce f3 64 8b 25 ba c8 bf fa 10 e9 17 84 cd d2 3f
       -0.1931807451855136 0.29379370055200094
000450 ec 22 de 12 f8 77 c7 3f ec b7 b7 6c 7b c9 c4 3f
       0.18334866448665055 0.16239874657134068
000460 51 8c ff 21 75 ea df 3f 43 e0 64 a2 e7 f2 c3 3f
       0.49868515319957846 0.1558503668727572
000470 1f c2 79 c3 36 93 e2 3f fa 75 21 e6 04 fa d5 3f
       0.5804704492457552 0.3433849570627384
000480 b9 f8 bb 07 a5 af d6 bf a4 1d 5b 88 b7 53 be bf
       -0.3544704986123964 -0.11846491889001826
000490 76 d4 72 2c 6f 2f 83 bf ba 37 b5 c6 5d 0d e8 bf
       -0.009367817443811637 -0.7516316300404846
0004a0 1a b8 55 05 4a bd de 3f af 5c 6e 7b a2 09 d6 3f
       0.48030329247456083 0.3443380551702359
0004b0 aa 24 ee 83 96 d0 e1 3f c6 cb 99 8e a3 81 6f bf
       0.556712396312965 -0.003845996329624654
0004c0 28 0d 61 8d 08 25 a1 bf 36 40 dd e3 3d e3 df bf
       -0.03348566747492959 -0.49824473621720544
0004d0 0c a1 8a ad 8f 97 d3 bf 08 6a 93 58 f1 fc d3 bf
       -0.3061255640736966 -0.3123134007452397
0004e0 9b f6 2c 1b 0d f7 d7 3f 0d 70 70 00 8e 8a a9 bf
       0.3744538083445634 -0.0498852134262223
0004f0 05 d8 0c de 88 ff d6 bf b3 7f 42 7d 5a 4e d6 3f
       -0.35934659657084494 0.3485323165168623
000500 46 3e d4 83 70 4e d4 3f 66 a1 32 d8 cf ed 9c 3f
       0.3172875678437531 0.028250930376687043
000510 35 bb d4 db 5c 37 d6 bf 4f 72 83 0d fc 15 e3 3f
       -0.34712907283658306 0.5964336646971534
000520 be 7f 38 66 70 af d5 3f d9 39 7d e8 82 04 d6 bf
       0.3388329504250541 -0.34402535156268993
000530 25 1b 32 58 ef 96 d1 bf 05 b2 31 c9 45 38 d6 3f
       -0.2748373376165765 0.3471846070085863
000540 82 ce 4c 74 35 09 c3 bf 57 fb fd 9e a3 02 e1 bf
       -0.14871853045189104 -0.5315721612276815
000550 a1 64 d5 12 88 09 a4 3f 1d e0 83 a7 9c d5 cc 3f
       0.03913521985914171 0.22526891879510993
000560 44 86 88 6d 5d a5 aa bf a4 06 19 d2 11 58 de 3f
       -0.05204288446499253 0.47412534253462923
000570 ba 04 b3 ae 65 53 dc bf 0f 4a 93 bd a5 30 ab bf
       -0.4425901609466326 -0.05310552539016921
000580 29 fe 4d 2d 57 c9 df 3f 46 56 29 7f 64 61 c3 bf
       0.4966638510158839 -0.15140968522125514
000590 eb 62 9d 08 a4 5a d5 bf 4e 58 6d a2 ab 64 b2 bf
       -0.33365727273262163 -0.07184860911851951
0005a0 18 15 b3 26 32 ff e7 3f b9 27 33 88 27 58 d4 bf
       0.7499018436289218 -0.3178805189205565
0005b0 60 9b a3 75 e0 ea 8d 3f 2f 50 1a 21 92 68 c6 bf
       0.014608148183879954 -0.17506624809596036
0005c0 c5 09 d6 57 0e 75 d2 bf 61 56 38 3c a0 c4 e2 3f
       -0.2883945329450877 0.5865021873639301
0005d0 b3 25 98 fc 72 31 e0 3f ed bc 09 05 56 f5 d9 bf
       0.5060362752421298 -0.4055991219710922
0005e0 d2 9c 29 30 d9 34 b4 bf 21 a5 1c a2 99 80 d2 bf
       -0.07893140245288358 -0.28909912902106966
0005f0 29 98 c4 f1 71 1d cc bf c5 e2 80 22 14 03 dc 3f
       -0.21964859299731757 0.43768790597418344
000600 37 c2 60 df ed 8c b7 3f 59 de b2 6c e9 62 c0 bf
       0.09199415877879678 -0.12801854903749435
000610 45 27 79 96 60 30 9f bf cf a6 9b ec 61 08 d9 bf
       -0.03045798223892084 -0.39113662821055767
000620 69 37 1c cf e9 86 d6 3f 65 79 b5 c8 65 58 df bf
       0.35198445535285444 -0.48977036095120347
000630 a0 66 ad 3a 0f d1 8d bf 7e c3 0d 9b ec 38 c5 3f
       -0.01455890558070233 0.16579968996986943
