weights/W2.npy (npy, 3328 bytes, 1 tensors)

array f8 [20, 20]
-0.3555107510447474 0.11433491281348869 0.5488820827129847 -0.023539307406776466 0.04169102712504585 -0.015081990195009743 -0.09598506316615 -0.33065619644239364
-0.1624858265477201 0.3709104564515304 0.20185565045404733 -0.5739524376955529 -0.29755994695986177 -0.08857201245260894 0.4751317963467193 0.6351380119629282
0.35951742583270185 -0.26480782529391006 0.14343120349597704 0.20008681225211136 0.6693096816375819 0.5144764168782535 0.5703046826449772 -0.034265302076956286
-0.1145691926311393 0.14386569195036783 -0.4178542703479248 -0.04657273728798548 -0.11354379305458712 -0.23225994626689558 -0.2789941471854014 0.43277573036177447
-0.23727280812055757 0.32991237964102144 -0.61535798979642 0.46630975983871453 -0.22483261963763213 0.23692863323091976 -0.18720996297633397 -0.17198440004657572
-0.7080357087428293 0.27153700747995896 -0.19097328336271663 -0.30746410764548715 -0.20361673034493416 0.3430453171064178 -0.2069110624325024 -0.1430249420498843
0.15905145300366852 0.10103044997299636 0.8668326589348154 0.03262165364444661 -0.4137581496989979 0.4039997084531186 0.5308821854412887 -0.3676723352651533
-0.38699330888669087 0.3926148157101661 -0.014913453072110295 -0.28941117406405686 -0.2289513070278367 0.9253402843742005 0.7366699645909685 -0.4847167939581467
0.0359333315127317 0.12180949842152157 0.6160692259331879 -0.044484804117816426 -0.09847421775598421 0.4134880791383646 -0.20940058995568886 0.2259969778848492
-0.07078768149417401 0.1029579573041519 0.2741667573669349 -0.09586317519420025 -0.016044828054630474 -0.2976828355681677 0.07124444109118568 -0.15723783894145768
0.32646898092396265 0.10144551419445785 -0.49465884892030854 -0.21891553799837457 -0.04950855679842395 0.07277237443541672 0.22691011531134608 0.3609338384377777
0.39048766431205195 0.26445491530448123 0.08166923297495005 0.32280422941776327 0.18796727222376636 0.24006119101347534 0.49034716300074427 0.46362700900629217
0.3723752228423998 0.1247728532394957 0.1467593931419239 -0.19581829475662346 0.24148176599901455 0.16381611710427646 -0.4186033488000862 0.3857159994497275
0.051396471987737724 -0.34646166892921204 -0.638323756638668 -0.4655826944242328 -0.34026405141324784 0.11240365584585575 0.2129105316113402 0.15559352062249351
0.609026756503496 0.38497939762661615 -0.14054922044286203 0.30975739885551085 0.08916813646461207 -0.10624547670340848 0.6591754016240041 0.08783869930958305
0.30029831496244874 -0.39147968107642817 -0.29296823633475727 0.39791802401292503 0.03778308504488448 0.35640789577540183 -0.11402272055348 -0.2323655016548863
-0.2588013123366585 -0.3066515508610563 0.165448518717794 -0.21039942085653524 -0.17532060989715423 -0.366109580264947 -0.536907499063882 0.2692510450543783
0.4876611371851049 -0.02234667260289931 0.49668000795115314 -0.19144143773350664 -0.2186291649266311 0.15753977319713194 0.1760535574253709 0.2992102594737997
0.009954842233655887 0.17157769274168294 0.03765173317152113 -0.010836082909952414 -0.5374939259002661 0.14562029587388087 0.575585337440032 0.5982596659319562
-0.08502739802193188 0.3084726869487275 0.36101922823005916 0.1252552052546744 0.20375457284403803 -0.29739785878001795 0.09848322888419782 0.633745279998438
0.18662422786861574 0.003963584862408908 0.08328150239787974 0.03150532933102046 0.2746603516587334 0.5009515417995057 -0.31319712258326937 0.279925402142992
0.10981046047717459 -0.06376941333056223 -0.5267166826113432 -0.30520608283372136 0.45935424250176504 0.5471040339123615 -0.1274451562500321 -0.41010929733336976
0.07351388388118044 0.07205132166951207 0.23636330297085192 0.3009881212423568 0.2102543828027024 -0.41867916536557304 0.46527939954923825 0.2142158830878602
0.366489652851205 -0.07401785225314288 -0.19669523945371895 0.002017841514848428 0.22873308376470472 0.5992931367559308 0.5262066429208411 -0.005282520574123207
-0.04657714326012714 0.12321282285397954 0.18428137542424006 0.48789820662750183 0.5894680618914576 -0.2466089197096884 0.5126300040249033 0.3146649831773211
-0.25522271061286306 0.23648014644487272 -0.267683085891405 0.1468427747109361 0.41720642884301207 -0.1028347244340856 -0.48050054357011696 -0.3590889279512232
-0.0774143036536259 -0.48990327034191383 -0.18392950238391897 -0.25729096753442254 0.06433321777321759 -0.10433414202016189 -0.13344864197995326 0.12665678312817877
-0.07481555611048536 -0.3839737578095473 -0.15636914019462156 0.08042836605982832 -0.049546857791389926 -0.07557345373891802 0.08932456581807793 0.17049033239776634
0.05103149437475723 0.14886923965339363 0.6430063762105874 -0.4145918385944276 0.3245242732864524 -0.028563733659178157 -0.1844811271909347 -0.003077711812233367
-0.13117580394201903 -0.5297528365981308 -0.11006289100641378 -0.026488370074946265 -0.20022448999821946 -0.18937621275592004 -0.005823516013999933 -0.39545767027068046
0.5287045943991668 -0.20365429556343045 0.17685121315210486 0.13090585936296364 -0.9738388109955299 -0.2676456285620494 -0.032985147146885024 0.23294146371849847
0.032039363002950044 0.32817973738781825 0.22151763738416677 0.3729139382457701 -0.3255206065934132 -0.48653107296673526 0.28868212725928794 -0.5845529955919166
00000000: 0645 472a b0c0 d6bf 9d2f 5387 0d45 bd3f
00000010: b79a 5328 7190 e13f 832d ee2d b01a 98bf
00000020: 37d3 13bc 8658 a53f ad55 2b75 4ee3 8ebf
00000030: ebfe 3323 7a92 b8bf 3626 7c9b 7829 d5bf
00000040: 9a01 8be7 55cc c4bf 540a 0d36 ffbc d73f
00000050: a541 9bec 67d6 c93f 8094 ab80 d15d e2bf
00000060: c8b1 32e0 380b d3bf 092a d3c8 a7ac b6bf
00000070: 3e54 a631 8f68 de3f b278 baf3 0c53 e43f
00000080: b0c9 9260 5502 d73f b32e 5785 9cf2 d0bf
00000090: c0dd 1e24 f45b c23f 39ea 7dd5 719c c93f
000000a0: 5ef2 3023 fc6a e53f 85c5 213f 9776 e03f
000000b0: 21e8 169b ef3f e23f babd 9dbf 388b a1bf
000000c0: 98d8 7a17 6854 bdbf 19bc f8e4 306a c23f
000000d0: 93d9 68d6 1fbe dabf 6dfe 12bf 61d8 a7bf
000000e0: 744f d5bd 3411 bdbf 538a b1a4 b1ba cdbf
000000f0: 0cf3 7b44 0adb d1bf 6701 1afa 98b2 db3f
00000100: f2ce 8d93 f45e cebf 67a3 46d0 481d d53f
00000110: ed40 303d 03b1 e3bf 7106 14e4 04d8 dd3f
00000120: 2475 35b6 50c7 ccbf 593c 9b6d ad53 ce3f
00000130: 30ff 3bfe 7ef6 c7bf 06a5 cfb6 9503 c6bf
00000140: 966b ae80 3aa8 e6bf abed b1c1 dc60 d13f
00000150: 16ef 3903 d071 c8bf 08ff c1ef 7dad d3bf
00000160: 22fe dfee 1c10 cabf 2327 8158 74f4 d53f
00000170: da02 2acb 0f7c cabf 0eeb 4e2c a44e c2bf
00000180: cc19 844a cc5b c43f 3fc0 88ae 21dd b93f
00000190: 265a 27d8 17bd eb3f 64b3 160f c9b3 a03f
000001a0: 6348 5a76 037b dabf 5894 d997 21db d93f
000001b0: 9dfa 0fa3 fcfc e03f e2e5 e68b f187 d7bf
000001c0: 411b 5c95 7fc4 d8bf 609d 59e4 9920 d93f
000001d0: a79d b8c9 f18a 8ebf 01ef ec71 b685 d2bf
000001e0: 4bcf 07c4 464e cdbf 7cdf 613a 639c ed3f
000001f0: 54a3 bbe3 cc92 e73f 4cd2 7796 9905 dfbf
00000200: e0f4 5d87 da65 a23f 7906 1044 e82e bf3f
00000210: fe8f 2ecf d6b6 e33f f2c0 b555 b6c6 a6bf
00000220: b9d9 c238 9b35 b9bf 44d9 4bb4 9676 da3f
00000230: 93b7 cf76 a3cd cabf 4950 810e 78ed cc3f
00000240: f725 fa38 241f b2bf dffa 7be3 735b ba3f
00000250: 85a5 22ba f28b d13f 0d8d 5932 7d8a b8bf
00000260: 5fee 0e2f 0e6e 90bf 0322 d64e 3c0d d3bf
00000270: 3129 8260 133d b23f 5740 f997 5e20 c4bf
00000280: ff84 0e27 dee4 d43f 8c85 ca4d 55f8 b93f
00000290: f08a b296 7da8 dfbf 9b06 25a2 6c05 ccbf
000002a0: 248d a480 2f59 a9bf 0f9c 40d8 35a1 b23f
000002b0: b468 3202 640b cd3f 4a0a 073e 8a19 d73f
000002c0: 528c edf8 bffd d83f d7f2 1f4f d4ec d03f
000002d0: 3481 b75c 46e8 b43f 8b06 1712 d3a8 d43f
000002e0: 16af 75c3 4f0f c83f 2889 383a 53ba ce3f
000002f0: af92 3111 d961 df3f 4c5b 4e9e 10ac dd3f
00000300: 75b9 fce2 fed4 d73f 279d 171c 1df1 bf3f
00000310: 8572 f604 03c9 c23f 7b16 f8e9 9210 c9bf
00000320: 5ae6 c5df dfe8 ce3f 28a2 c230 edf7 c43f
00000330: b8ea 45b3 65ca dabf dd8d cb28 92af d83f
00000340: b85c a26c a350 aa3f 3e96 5790 6d2c d6bf
00000350: f1bb 60f1 256d e4bf 59ae 885b 1bcc ddbf
00000360: 59c2 34df e2c6 d5bf d70c cf69 7cc6 bc3f
00000370: af51 1ffd a640 cb3f ab84 450d 7dea c33f
00000380: 7d49 32ae 257d e33f 8a2a 9ca0 80a3 d83f
00000390: b9e3 a350 84fd c1bf 13d2 71b2 10d3 d33f
000003a0: 47f5 f515 b9d3 b63f 7200 ca4f e732 bbbf
000003b0: 3cb0 0903 f717 e53f 349b dbd4 987c b63f
000003c0: 20b0 736c 1638 d33f aa64 d1ca 000e d9bf
000003d0: f1c5 74d8 fdbf d2bf 15f7 e728 7d77 d93f
000003e0: 3033 38f5 4d58 a33f c90e 1910 63cf d63f
000003f0: 6c34 c7cf 9730 bdbf 82c6 291b 27be cdbf
00000400: 0a76 2961 3390 d0bf 97d1 8dd3 2da0 d3bf
00000410: cd43 88c4 6a2d c53f 628c d643 5eee cabf
00000420: bf59 e9de e770 c6bf 0060 7fe0 566e d7bf
00000430: d89b aea2 582e e1bf 3b08 3bbc 683b d13f
00000440: 5b5f ef0e d735 df3f f3f6 03d0 0be2 96bf
00000450: d18a aef1 9ac9 df3f a412 152d 2781 c8bf
00000460: d4e4 a75c 0afc cbbf 5fb8 d966 432a c43f
00000470: 3543 be47 ec88 c63f 4754 c4c9 4226 d33f
00000480: 5da4 a44e 3463 843f a63a 8601 42f6 c53f
00000490: 7d03 3885 1647 a33f bf4c b86d 3a31 86bf
000004a0: 0f4a 3176 2633 e1bf bac1 3494 afa3 c23f
000004b0: 0396 0bf1 316b e23f 4732 7674 f124 e33f
000004c0: f4a6 c405 5bc4 b5bf a3db 8939 04be d33f
000004d0: ba6a 9e64 f01a d73f f57d 1cd1 5c08 c03f
000004e0: a246 633d a114 ca3f 2114 5707 9108 d3bf
000004f0: c919 4367 3236 b93f 10ce 722e a447 e43f
00000500: 6321 ab7d 4de3 c73f 1954 beb5 1e3c 703f
00000510: a41f 29c1 ef51 b53f 10bd 406e 7721 a03f
00000520: a574 f802 0994 d13f e31b 1d87 cb07 e03f
00000530: 8e92 acf1 6b0b d4bf ec85 e13b 4cea d13f
00000540: 2117 82d0 891c bc3f 3368 bd38 3153 b0bf
00000550: ba58 c2f1 dcda e0bf 11e9 1318 7f88 d3bf
00000560: 56bb 3456 0f66 dd3f 7d39 a551 e081 e13f
00000570: da51 1075 1f50 c0bf 7045 f510 3b3f dabf
00000580: 2255 124f ced1 b23f e541 3496 f471 b23f
00000590: 23ff 1d18 2741 ce3f 1f1b 4eae 6343 d33f
000005a0: 0138 fd98 9de9 ca3f e4bf b0b2 a3cb dabf
000005b0: 7641 243f 23c7 dd3f 07b4 1212 6d6b cb3f
000005c0: 555f 5404 9174 d73f 2b56 bf7e d5f2 b2bf
000005d0: 39c6 5d42 4f2d c9bf 32b8 126a b887 603f
000005e0: 652d 242d 2047 cd3f f3af e2cc 682d e33f
000005f0: 070e 4950 afd6 e03f 416e b3d1 1fa3 75bf
00000600: 5a32 1696 f5d8 a7bf 130e 9b24 e08a bf3f
00000610: d0c0 5a38 8896 c73f ba7f 4f66 b939 df3f
00000620: b287 fb1f ecdc e23f 4a0a 878e e190 cfbf
00000630: a587 c709 7767 e03f db59 fc98 7823 d43f
00000640: 88d6 d1a2 9155 d0bf 8927 913f fb44 ce3f
00000650: f023 e63c b821 d1bf 6cc8 8479 becb c23f
00000660: b2f2 e397 82b3 da3f f96a 5662 6053 babf
00000670: 0e02 165a 85c0 debf 3fff 7920 50fb d6bf
00000680: 0058 6f7e 6cd1 b3bf 1a9b 143f 935a dfbf
00000690: 1216 c17e 008b c7bf 6f75 c788 7477 d0bf
000006a0: fbe5 614a 2478 b03f 5833 d56f a4b5 babf
000006b0: 02f0 7f58 d814 c1bf 5d11 ad1a 4a36 c03f
000006c0: a501 babe 1c27 b3bf 591c 14ab 0693 d8bf
000006d0: 34a9 9e6b e703 c4bf 4bce e511 f496 b43f
000006e0: 54cb aaab 345e a9bf ca21 4128 c858 b3bf
000006f0: f204 eb88 f9dd b63f a45e f790 a0d2 c53f
00000700: 87a9 cfce cc20 aa3f 058a d8b1 250e c33f
00000710: cd34 9e1b 8293 e43f a4e6 fc34 ac88 dabf
00000720: b080 2175 01c5 d43f 36da abb7 cf3f 9dbf
00000730: f5d3 01dc 139d c7bf eecf 8ff2 6d36 69bf
00000740: b18e fa65 5eca c0bf dade 8438 bcf3 e0bf
00000750: ca31 60e5 142d bcbf f3f2 c86c c41f 9bbf
00000760: e647 33c2 f4a0 c9bf 6aa8 36d0 7a3d c8bf
00000770: 37ec 3e2d 66da 77bf 84f4 30b0 2d4f d9bf
00000780: 4a0f c6e5 25eb e03f d242 910d 5811 cabf
00000790: fd83 5f80 0fa3 c63f 4dcb 68f0 85c1 c03f
000007a0: 77a4 9902 b029 efbf efd8 6521 1b21 d1bf
000007b0: 0cce 7fe0 6de3 a0bf 3dd3 46a0 06d1 cd3f
000007c0: 3c8f 90a0 7667 a03f 5698 d295 e500 d53f
000007d0: f1ad 06a0 b05a cc3f ca3d 3f6c d2dd d73f
000007e0: e689 df61 54d5 d4bf 9250 b839 5323 dfbf
000007f0: ad2c e199 c479 d23f 5e13 db7b a8b4 e2bf
