weights/W2.npy (npy, 3328 bytes, 1 tensors)

array f8 [20, 20]
00000000: 103b 5088 586b d03f 00e5 9bff 3631 e03f
00000010: 150c 564b 5845 e23f 4216 b28e ac2b c13f
00000020: 51a5 64a6 0c7e c3bf 6937 396f 9a8e d5bf
00000030: 619b a9f5 bd68 b6bf bc21 2392 0bbc cfbf
00000040: d0fe e125 8e4b bcbf fae8 08fb d1ac b13f
00000050: db2b 48fb 60ce c83f f3de ff2e b52e c8bf
00000060: 2e82 063e f12f d9bf 0c8b 0f00 b4bd d53f
00000070: 92cf 227a 73c0 d63f 8059 96b5 3bea c6bf
00000080: a2d0 ddae f8db d4bf 698c 75c3 aaac c3bf
00000090: d18a 34fe 2829 dcbf 9a7a 9dda b80f c23f
000000a0: f473 7ebf c102 9ebf c9eb 5f07 2fdf d43f
000000b0: 85c8 d018 749c cdbf 16fa 4889 a990 d83f
000000c0: b252 77f8 c103 d83f 5eba a09b ea1d dcbf
000000d0: 7bf6 f295 943c d7bf 0a13 2ba9 f162 d8bf
000000e0: 5f4a e6dc f1b8 dabf 6395 7513 d243 bb3f
000000f0: cfff 13c2 f4b4 dabf 5699 531b 8514 c83f
00000100: 48ba 6940 9d1e e53f d627 230f a55b 9dbf
00000110: 9b80 7759 c6ff c23f 2808 3cbc ec95 cbbf
00000120: f489 abff 1fbc bf3f 7c03 e03f 563d d93f
00000130: b653 5430 c749 d1bf f73b 7a23 dcf4 d13f
00000140: 29ea bef7 e815 d43f 1c14 8c2f a5a0 c03f
00000150: 8648 b16e 2911 cd3f 0a67 b20e c5ee d9bf
00000160: f776 c197 7137 d13f ef19 a540 21c0 dbbf
00000170: 3667 8c2d ca04 a0bf 1f31 abce 5c56 d7bf
00000180: 3e56 bf27 8fd4 d1bf 3a60 6406 5e8c c9bf
00000190: 8d04 9b82 eb6a e13f 94ad 6f04 1d2c c5bf
000001a0: 6e5e 6d7f ffb6 de3f 128a 64ca 7159 c33f
000001b0: 2dfe d028 0d99 cf3f b293 0b8f 3088 713f
000001c0: 08bd e7c3 2132 da3f 6381 e21b ceab cb3f
000001d0: 4cd0 f166 41f0 85bf c775 dd6e 4f08 cbbf
000001e0: 8391 f66d 5ab7 c6bf e6a8 f59a 63e6 a23f
000001f0: b0f3 cd3f 8761 dbbf 9024 6b1a f2e4 d53f
00000200: 8b09 f6b8 8e95 b1bf 6edf f872 2bdd d2bf
00000210: 561e 68b7 7e23 c4bf a1ee b00b 80c9 d5bf
00000220: 452e c8a9 f404 c6bf 92ca 1332 3fc5 9a3f
00000230: e96b 55e5 5deb bd3f a2cc e5aa 1baf e83f
00000240: d976 9ae3 8325 b73f f723 152e 60ac 89bf
00000250: abd3 87f5 6749 a03f cbcf 1ef2 936b da3f
00000260: f64e 3a8d 0cb9 c1bf 3669 2e91 e826 d7bf
00000270: c3ad b0c5 0831 c4bf d35a 6337 6e17 d4bf
00000280: 4346 12f0 a436 d8bf 92c8 3811 9ce3 de3f
00000290: 8564 56f9 0833 e2bf ca70 4611 2fb8 c23f
000002a0: 7aa7 a51b 2f4a 8e3f 0b84 0d34 5bfb d4bf
000002b0: cab3 370c 06a1 dabf 28c4 97d4 3852 de3f
000002c0: 1757 2782 6761 dd3f 31ea 3139 01c8 b13f
000002d0: d604 62ff f1de 9d3f 047c dc37 5184 c53f
000002e0: 46eb 0e9e 2372 60bf df77 8e83 045d b4bf
000002f0: 1aef c9c8 5d36 d43f 7199 4167 50a3 d03f
00000300: 6925 6984 5b74 c33f 15d9 b059 d1ae e0bf
00000310: 9f73 48e0 68f5 d3bf d5c2 acf7 1edb e0bf
00000320: 38a3 54dc e56d d1bf d162 c210 880b dd3f
00000330: 56ce c434 ca6b c2bf 0c0e f8e1 1594 d3bf
00000340: a06b 946f bc18 e13f 29df ea1a 2c00 b9bf
00000350: 9238 7c91 aa4d d2bf 7284 ec60 73cb d9bf
00000360: 306c 6eac a7ca d4bf c35b 1948 1d67 c3bf
00000370: 0e89 a05b 231f d7bf dc09 7496 d221 e0bf
00000380: 3433 61e7 5b24 c33f 78e1 2217 21f9 c1bf
00000390: 7891 ba55 0eb9 a9bf 9a9c a949 bac7 d9bf
000003a0: 2de8 6abb 81f5 d6bf 5bed 2ff9 79b0 b83f
000003b0: 2f53 c372 d419 da3f 88c9 2239 814e debf
000003c0: 4384 8878 b602 d5bf e932 9cc1 8e97 b8bf
000003d0: 7799 7fb4 807c ddbf e00e 992f 4fe5 bc3f
000003e0: 12a9 523c ac0a c83f 78e4 04e2 7cdd d7bf
000003f0: 2297 f244 3e29 aebf 79a2 1b67 d0d5 c6bf
00000400: 9f05 ce7c f326 d1bf 7a2a 170a 5d35 d03f
00000410: 84e5 7c8a 767e d43f 4949 9fd5 5cb1 cebf
00000420: 2f92 ce11 6345 d4bf 4d8f 8fcd 5889 db3f
00000430: 8630 d33a f649 b8bf 5054 ed68 7741 cc3f
00000440: 0388 f4a3 7d23 cd3f 22fe 8000 c7c5 c1bf
00000450: 272d 34f8 ab24 d7bf 1a99 52df da7b b0bf
00000460: d08e e5e0 678c c6bf b173 77f2 f4bc b6bf
00000470: 9f0c 3b04 b294 e23f 4c8b a480 17cb d2bf
00000480: 8050 9ed0 b026 babf ec00 0129 8b56 c8bf
00000490: 178d 56a8 4bf8 a93f 8fee 9c5f aa58 e63f
000004a0: 0de8 aa44 5198 d33f 8e97 f8f7 7dcd d0bf
000004b0: 68ac c48d ca30 bfbf 4fc8 f590 a0cd c83f
000004c0: 7fac 209e 6165 e63f ad23 a50a 73b0 b1bf
000004d0: 0bfe 2198 4dcd afbf 82e9 d78c 9bbf c33f
000004e0: 6f43 95fb 3a25 dcbf 254a 686f 390f d33f
000004f0: e960 aa86 0093 bdbf 7e27 1672 5b5f c23f
00000500: 5255 b5cd 1a50 df3f 2871 e713 2f69 ce3f
00000510: 916c 80e1 e085 d8bf fb13 b0f4 2628 bfbf
00000520: 216a 3762 027f c8bf 8c2d 8e4b c6ca b3bf
00000530: 98e0 7bbc 7d04 d63f 07df 7a09 a5e2 dd3f
00000540: 443e d359 7d6d e0bf 1357 3cc0 082a d8bf
00000550: f702 2fbd e6af b6bf ded3 5aa2 0d86 d1bf
00000560: 7c42 4de7 e23d e33f fac5 d46f 575a 8dbf
00000570: 6e60 42a3 fdaa ddbf 87dc 295e 75c5 903f
00000580: 0bb0 f72a 49e8 b3bf 259b 3cf6 a223 d1bf
00000590: 226e 883c 4041 e43f addc cb87 71b4 cfbf
000005a0: 970a bc9d 55da b33f 2f81 032e e2ae c3bf
000005b0: bb65 e247 f362 ce3f 95be 4eed 843d eb3f
000005c0: 4919 0457 0989 e0bf b360 9348 b5b6 b83f
000005d0: 8f37 f6f8 8c17 debf 48c7 fb80 c7c3 c73f
000005e0: a742 b1dd 6bba d83f 50d6 f23c 8ed0 c13f
000005f0: f2eb 0a85 431c ba3f 86d5 3191 6f74 dd3f
00000600: fc0f b976 fa3a c53f 742d 293e 2b90 c1bf
00000610: 7847 9e0f 0db0 cc3f 5e84 ff34 09be e13f
00000620: 8514 24dd 2200 d2bf cce7 c854 0c84 c13f
00000630: 4b27 43c1 a3e9 d9bf 6cf1 c154 52c5 c63f
00000640: 7731 ddcd 93ca d83f e1cc e71d 0abd c5bf
00000650: 409d d3d8 00ab d23f efee 918a e0e1 dcbf
00000660: 49ea 8376 27f0 d8bf 1501 a450 2206 a13f
00000670: 042e 657e fc11 b63f a4e1 ee84 a4c9 da3f
00000680: b720 d5e4 70ad d3bf be69 e4c3 aab3 abbf
00000690: 67ed 6f09 4312 b13f dbb6 ff1f fee0 dc3f
000006a0: 7209 f38d 28b6 cdbf bc14 6ea1 943f d6bf
000006b0: c2b2 095d 61c5 bcbf 7cee bad7 29b7 b1bf
000006c0: 2d4d 8e32 1c8a cb3f 2165 c81b 45e7 d4bf
000006d0: 256d 1ced cd21 dbbf c686 3513 e8e0 c9bf
000006e0: 0285 e501 b0b8 d5bf 760e 6183 0bed ca3f
000006f0: 5bbc 0c66 ef69 d7bf 010f 773a 0d58 c9bf
00000700: cbe6 3b32 9fdc d43f 07b1 3d4d c2fd d53f
00000710: 51be 3882 df11 d03f d030 3fcd 55bc e23f
00000720: 56e9 8a2e 3d55 b1bf fd6b 66ee 0760 b0bf
00000730: 957d f6d5 1afe c0bf 6300 67b5 6c5a d93f
00000740: 9ae7 0671 bb4a d83f 15fa 6b0c aa7e d33f
00000750: 9fe5 aae0 03f5 e23f 4581 c804 793e b83f
00000760: e3d5 25cd 0838 a5bf b394 77ab 4022 e1bf
00000770: ee5a de56 597a ddbf 16da daa8 e93c b33f
00000780: 41b6 dbc7 6cb1 d53f 8693 342a b818 a73f
00000790: c05b 936e 1d1b d33f 32cd c9d2 fa7e b23f
000007a0: a077 de73 188f cebf 1e24 eca4 541f c8bf
000007b0: 0e3b fb19 78d5 c7bf f068 ea4a e5da d13f
000007c0: 84b0 bca4 d262 e03f e2c2 0046 88f5 d2bf
000007d0: af3f 786e 1f3e b6bf ea09 ecee ba02 dcbf
000007e0: 6899 d304 5899 debf 7812 8c0b 2619 9ebf
000007f0: a531 76f7 b865 c03f 25f5 4397 c280 bfbf
0.2565518695054587 0.506007670627838 0.5709649535568838 0.1341453263050188 -0.1522842228380719 -0.33682881223363964 -0.08753573653812687 -0.24792618404013733
-0.110527881859521 0.06904327753810327 0.19379818219780884 -0.18892540736100435 -0.39355116898699094 0.33970355993203394 0.3554962818845918 -0.17902323118751085
-0.32592598988345334 -0.1537068800344941 -0.4400122148964956 0.14110479998176545 -0.029307391465056967 0.3261220523851845 -0.23133708202073336 0.3838294830965493
0.37522935165660976 -0.4393259544184839 -0.3630725349756642 -0.38103906174028224 -0.4175381333563219 0.10650361037331417 -0.4172946830076371 0.18812621912293065
0.6599870927873974 -0.028669909523877234 0.14843062752243416 -0.21551284018647832 0.12396430961556587 0.3943687080173317 -0.2701280567137546 0.280570063253378
0.3138372821228211 0.12990250417365778 0.22708623795421462 -0.40519834933512355 0.26900901622671775 -0.43360167801839017 -0.031286542949784765 -0.36464615042202014
-0.27859858399947146 -0.19959616958726817 0.5443017531289499 -0.1654087325726833 0.4799193138510195 0.15116712934930426 0.24685825818049648 0.004280271227547526
0.4093098080765718 0.21618057595788817 -0.010712157205695537 -0.21119110978444963 -0.1774704968385202 0.03691397921177657 -0.4278276560869996 0.34209873752531283
-0.06868831649447864 -0.29474912860631874 -0.15733322101026442 -0.3404235948725987 -0.1720262364400346 0.0261430620493664 0.11687266205755943 0.7713754976124572
0.0904161863968186 -0.012535811811760651 0.03181004402350792 0.41281603474203327 -0.13845974822890356 -0.36174978425846704 -0.1577464070590918 -0.31393008622164337
-0.37833522266837266 0.4826421898061507 -0.5687298650619971 0.14624584525598144 0.014789932280752306 -0.3278415687873923 -0.4160781020462393 0.47376843224543785
0.45907008848495096 0.06945808073388872 0.029170781338056916 0.16810050227738327 -0.002007550778640707 -0.07954433643178004 0.31581825836450295 0.25996790011995247
0.15198844876639875 -0.5213400604032211 -0.3118536176933108 -0.5267481648826001 -0.27233263508474037 0.45382882725384116 -0.14391448570823923 -0.3059134203651588
0.5342695407192544 -0.09765887887158144 -0.28599037368338387 -0.403042645122759 -0.3248690780544079 -0.1515843011900114 -0.3612755198283971 -0.5041287363567863
0.14954708860241228 -0.14041532163333748 -0.050239990200938445 -0.4028154105530547 -0.3587345438242007 0.0964428170554376 0.407826530526381 -0.47354155139614607
-0.3282905747492501 -0.09606258608637187 -0.4607240450553926 0.11287398254449554 0.18782570786908842 -0.3728935439317591 -0.058908410946328496 -0.1784000876862313
-0.26800238788572445 0.25325704560660933 0.32021869205672027 -0.2397876780583579 -0.31673504580456585 0.43025798868460613 -0.09487856804043035 0.220747877344055
0.22764559274315851 -0.13884818577388197 -0.3616132663598414 -0.06438987686360456 -0.1761598442200154 -0.08882075233073185 0.580651291144381 -0.29364574015396694
-0.1021528729746155 -0.19014110090393588 0.05072246961506204 0.6983234279100133 0.30617171960659634 -0.2625422402946861 -0.12183824502123886 0.19377524450425418
0.6998756493025126 -0.06909865388764898 -0.062113213368316954 0.1542849004470775 -0.43977236336382125 0.297804220958968 -0.11552432334645214 0.14353507109290925
0.4892642029638711 0.23758495780828892 -0.38317129155775215 -0.12170642350982057 -0.19137601657605877 -0.07731284470189886 0.3440241184866948 0.46695829320695775
-0.5133654360196904 -0.37756556294458327 -0.08862154120198427 -0.2738069615837143 0.6013044850934217 -0.014332469082179767 -0.4635614485100693 0.01637824427822612
-0.07776315020572626 -0.2678000836044013 0.6329652006419944 -0.24769419794731587 0.07755026913586459 -0.15377452131998257 0.23739472398737668 0.8512596735872245
-0.5167280864268743 0.09653790494792495 -0.47018741905855505 0.1856622104456227 0.3863782563176223 0.13917711235051167 0.10199377058135875 0.4602316778103489
0.1658623771382962 -0.13721218619535203 0.2241226507435916 0.5544477496261029 -0.2812583121852373 0.13684229030496764 -0.4048852336242034 0.17789677752069666
0.387364340819452 -0.16983152828434014 0.2916872136542743 -0.4512864449713864 -0.3896578462005534 0.033249924033954915 0.08621194921322944 0.418557290856848
-0.3074609980290108 -0.054105125820757646 0.06668490391159808 0.45123246312037474 -0.23212153369065508 -0.34763065113686387 -0.1123867847579261 -0.06920110241747496
0.21515228718326665 -0.3266155978504504 -0.42393825679183045 -0.2021761030001043 -0.33939743218623175 0.21035903849598342 -0.3658407684878903 -0.19799962382068517
0.3259656897131264 0.34361321967186637 0.2510908862777557 0.5854901322104755 -0.06770689379019265 -0.06396531648935873 -0.13275466391949622 0.3961440822131463
0.37956129110136205 0.3046059724146358 0.5924090755499271 0.0947032581975736 -0.04144313339467567 -0.5354312275855108 -0.46059258921870494 0.07514820454057544
0.33895415799529266 0.04511046900942177 0.2985299663391139 0.07225005766104145 -0.2387419286505379 -0.1884561353001865 -0.18620206135388923 0.27898533168776307
0.512063333274924 -0.2962361034033575 -0.08688541838659945 -0.43766663868168953 -0.4781093642362948 -0.02939280934789898 0.1281043251332338 -0.12305847352032069
