weights/W3.npy (npy, 1728 bytes, 1 tensors)

array f8 [10, 20]
000000 07 21 07 df 12 17 d5 3f 29 62 8d bd 43 d2 e0 3f
       0.32953330783904317 0.5256670667832327
000010 39 9c f3 df c0 45 cb 3f 29 6e f8 09 a4 f5 db bf
       0.21306620535981027 -0.43686772321391004
000020 06 d8 f3 01 9e 83 b3 bf 83 0b 41 ea a5 61 ca bf
       -0.07622706935566734 -0.20610498369395822
000030 3a 3d 57 b4 74 03 e0 bf ce 7c 64 cf bd 7d d9 3f
       -0.5004218599587269 0.3982996487920446
000040 f1 33 29 53 25 4b b7 3f b6 b3 20 83 d5 34 c7 3f
       0.09099038391396143 0.18129986670228754
000050 33 be fd 70 7d ae c7 bf c9 83 fa f7 86 07 d8 bf
       -0.1850125123705638 -0.375459425131393
000060 c6 dd 50 6c 3b cb d2 bf 2b 5d 0d d1 ef 18 d4 bf
       -0.29365430429194495 -0.3140220204854411
000070 13 7e df 71 cf 83 97 bf d8 b4 7d d8 4d d8 d8 3f
       -0.02296375401044599 0.38820215360358423
000080 ea 0b 47 18 d1 7f df 3f d2 5d 74 e9 ef bb e4 bf
       0.4921763169369898 -0.6479415473613079
000090 96 73 72 ee 1a df 99 3f 9d eb ba 45 c0 78 cd 3f
       0.025265141299871972 0.23024753002922874
0000a0 f5 8c c3 ee 55 c2 d2 bf bd 2f 4b 78 7c be c8 3f
       -0.2931113082579054 0.19331317781177218
0000b0 1a 44 19 d0 8a 2d e0 bf 15 1e 16 34 f6 7d e3 3f
       -0.5055593552043576 0.6091261880218918
0000c0 42 ee d2 fa 55 0e a1 bf c5 d1 f6 4f 3f 0b db 3f
       -0.033312498920591085 0.4225614815616406
0000d0 f0 ae fe 27 99 eb e2 bf 84 00 ea 61 31 67 9d 3f
       -0.5912595540189312 0.02871396217460688
0000e0 cf c3 b1 f0 fb 20 e9 bf 45 88 0e f5 df c9 da bf
       -0.7852763844549545 -0.41857146197628864
0000f0 ee d2 b0 da 2a 16 cc 3f 24 0a 40 05 f3 0b e1 3f
       0.21942649534471265 0.5327086546461186
000100 54 0c 24 d9 3c 52 d0 3f 64 b1 8f 51 4b 8c dd 3f
       0.2550193901553872 0.461687879228313
000110 b4 2f 32 00 89 6b a5 bf 56 37 df c8 61 51 d7 3f
       -0.04183605315583297 0.3643421613349934
000120 a5 f5 3a 92 bc 93 e0 3f 92 68 96 9e 36 22 b3 3f
       0.5180342536984212 0.07474080440298028
000130 37 c8 33 05 ee 63 da bf 80 d4 ae 92 ab de ce 3f
       -0.4123492289355712 0.2411703554368252
000140 c7 e9 9c 28 18 bc e4 3f bf cf 4e 5b 1e 62 d6 3f
       0.6479607384892966 0.34973868290694193
000150 1e 89 16 f0 e0 8c c5 3f a0 1b 61 0d 66 be cd 3f
       0.16836177561806037 0.23237300542151917
000160 e1 e0 5b b6 d1 fe cd 3f d7 f5 39 11 98 83 ce bf
       0.2343389645027463 -0.2383909305680578
000170 9d bc 97 2a 90 dd cc bf 74 9b 7c d0 f1 d5 c3 bf
       -0.22551157073710196 -0.15496657066361375
000180 b0 b7 ad 91 7f 46 d1 bf 3a 2a bd aa f1 da 93 bf
       -0.2699278757707999 -0.019389892622067452
000190 e0 0d 10 f9 fc f0 83 3f 4f b8 38 97 14 52 d8 bf
       0.00973699221686436 -0.3800097920201368
0001a0 a9 a0 fe 58 63 be e5 bf cd 30 d1 ac eb 5a dc 3f
       -0.6794907320190947 0.4430493533771028
0001b0 ac 38 26 db 46 e4 de bf 49 71 ae 94 f1 9d d0 3f
       -0.4826829090242295 0.2596401168791727
0001c0 9d 31 76 4e 66 70 b5 3f ec 21 57 c8 0d 0f dc 3f
       0.08374633231705393 0.43841881336677946
0001d0 d7 63 a6 5d ac d7 c3 bf 6f 15 f0 35 13 fd c9 bf
       -0.1550193269038391 -0.20303573735888444
0001e0 34 8e 42 56 5e 33 d8 3f 43 03 19 d1 ee e8 89 3f
       0.3781352846510544 0.012651315456538753
0001f0 dd fd bc 02 d6 eb d3 3f 6c ec 76 6c b6 fe d3 bf
       0.3112692858448705 -0.3124214228843758
000200 3a 03 1c 89 cf 71 de 3f 2e 45 11 12 9e f1 e1 bf
       0.475696452995226 -0.5607443192367663
000210 66 d3 54 dc 93 df c2 bf 00 66 1e 40 7d 5e cf 3f
       -0.14744804628721936 0.24507108336256067
000220 fa 69 9c a0 51 3e c0 bf 5f 05 1a 4b d2 6b e6 bf
       -0.12690182058652494 -0.7006617991284364
000230 9e f8 97 cd 3a 39 96 3f 81 69 1b 93 9b d0 b2 3f
       0.021702688978614597 0.07349560109597598
000240 90 5f 53 81 ff c2 d2 bf 81 d4 a8 ec d7 e2 d4 bf
       -0.2931517374940933 -0.32634542571333475
000250 d3 ee 09 e4 a1 d0 db bf c7 71 93 53 28 de c0 bf
       -0.43460891026891807 -0.13177970963341876
000260 55 ec b2 93 00 03 d5 3f 52 ec a3 fb 97 80 e4 3f
       0.3283082430240872 0.6406974711275188
000270 7e b2 ff 27 1a 1e db bf 13 00 0f b6 0d 3a b3 bf
       -0.4237122908223582 -0.07510457701482691
000280 40 76 0e aa 97 fc d4 bf 05 53 80 f4 ff 62 d5 bf
       -0.32791701895789416 -0.33416746975972017
000290 77 fe 03 5e b1 b6 d8 bf 4c 63 b7 f5 d7 13 b4 3f
       -0.3861506860848531 0.07842778920111221
0002a0 4c 4a 17 a5 86 0f de 3f 4b 65 f6 0f 59 12 d5 3f
       0.46969762918630376 0.3292448669322609
0002b0 4f 39 b4 5a 75 35 c5 3f e8 e7 bd 35 c6 06 d3 bf
       0.1656939213648436 -0.29728846786713214
0002c0 cb 9c f1 2f a3 2d de bf 2f e1 89 5b 2b 62 e3 3f
       -0.4715354889107856 0.6057335651267176
0002d0 48 53 f9 30 c4 a3 7b 3f e4 ad 92 2f 7d 80 d0 bf
       0.006747976658137152 -0.25784234662816474
0002e0 88 9a ef aa d4 0b de 3f 36 39 04 28 dc ca dd bf
       0.46947209065403017 -0.46550659091817026
0002f0 63 a8 da e9 66 77 e1 bf de 36 cb 09 98 b0 e2 3f
       -0.5458254401649011 0.584056872490432
000300 02 41 56 45 1d 3d d4 bf e0 5d 03 fe c6 b9 d2 bf
       -0.3162301232450916 -0.29258894735309404
000310 9e ef 8a f6 85 51 bb 3f 83 ce 52 5f 92 d5 eb bf
       0.10671269673451753 -0.8698207723413848
000320 a8 db 1a c9 e8 94 d8 bf 1c fe 1d e3 f8 83 ad 3f
       -0.384088703528898 0.057647493099463015
000330 b1 ab 08 ac 0d 14 e5 3f 47 bc b5 8f cd 47 c2 3f
       0.6586979255711097 0.14281625287137187
000340 fe bb 5b 7a 4e f4 a6 3f 21 2a 7e 33 c0 83 cd 3f
       0.04483266109115645 0.2305832148961864
000350 7c e5 8a af 06 70 df 3f 18 ee 5b c9 79 a7 cf bf
       0.4912125314982274 -0.2472984536360492
000360 50 15 ae 99 d2 0a e4 3f f4 8b d1 65 9f 80 94 3f
       0.6263211251795529 0.020021906461248976
000370 49 8c fa fd 65 f8 d6 bf 3d a5 5e 87 5d c6 d3 3f
       -0.3589110355625889 0.3089822599382222
000380 34 a6 54 13 25 cb e1 bf aa e6 07 e7 27 8d d3 bf
       -0.5560479524185156 -0.3054904705200935
000390 7a a6 b1 38 f8 11 e7 3f 6b d7 09 aa 40 cd e9 bf
       0.7209435565284388 -0.8063052483619065
0003a0 b5 4c f1 9b e1 0c e5 3f f6 5b b6 d4 62 3f 94 bf
       0.6578224225762798 -0.019773048623019172
0003b0 27 1c 15 6f 4d 0e db bf 76 2e 0a 2d 04 f1 cf 3f
       -0.4227479538716942 0.24954273413856115
0003c0 ae de a0 bf fc 2f 99 bf 46 ea 0b 08 b8 50 e9 3f
       -0.024597119518346026 0.7911033780249646
0003d0 67 f6 29 70 b1 bb d8 bf 05 67 0b 1f b3 35 b2 3f
       -0.38645587876803805 0.07113189227984769
0003e0 e2 6f 3e 1e e8 58 ad bf d2 9e 08 b3 4e 8d dc 3f
       -0.05731892937839668 0.4461247204185216
0003f0 25 a6 0c 38 da f2 c2 3f 75 0b 3d 86 16 03 a7 bf
       0.14803626763141256 -0.044945434462099344
000400 e2 79 99 1d 65 be c1 3f d0 e2 28 74 c2 2b d3 3f
       0.13862289376534337 0.2995458731052567
000410 89 ff 72 e7 88 a2 dd 3f b6 86 be 6c 79 32 de bf
       0.4630453357931335 -0.4718307077365397
000420 0f da 5f a2 e6 69 e1 bf e1 e8 be bf 1e 08 ca bf
       -0.5441773578048145 -0.2033728061922551
000430 20 af 98 d8 8f f2 bf bf e7 8e 74 81 0c 92 d9 bf
       -0.12479495084761227 -0.39953911440009765
000440 d8 fd df 4a d5 ed d0 3f 82 ba 8b 1c f4 f7 d5 bf
       0.26451618492134576 -0.34325888431241236
000450 6f d6 71 06 d7 2e d1 bf a8 b7 5f 18 c6 be e2 3f
       -0.2684838831840812 0.5857878185322436
000460 dd cf 4a 36 ce 7e cc bf da 11 c9 05 fa 92 c5 bf
       -0.22261979723918915 -0.16854787142268784
000470 92 46 37 7d f3 6d da 3f f7 16 b4 c1 49 51 dd 3f
       0.4129608843623852 0.45808643261294385
000480 23 93 24 cb 67 4a c0 3f 6d d6 aa e6 66 59 c7 bf
       0.12727067393384414 -0.18241583121350705
000490 20 cb 74 fc c7 6f c4 3f 79 02 24 0f 3f 36 e4 3f
       0.15966129137958607 0.6316218658176488
0004a0 07 a1 99 6e 86 12 96 bf 1d 4c 8d 9e 87 06 c2 3f
       -0.02155504274415512 0.14082427255434107
0004b0 bf 2f 87 a0 54 85 cc bf f0 4d fc 5a 98 ce a0 3f
       -0.22281892622265606 0.03282619581855417
0004c0 29 85 4b 7b cb 8d d6 bf 59 00 34 50 11 0b d4 3f
       -0.352404470830225 0.31317551452958053
0004d0 28 1d 73 4b b2 27 a2 3f 99 88 fa e8 1c 56 84 bf
       0.035459109983600634 -0.009929872379249626
0004e0 30 92 e6 58 09 e1 d8 bf 5b df 0a 0d df b6 ba 3f
       -0.38873513871866106 0.10435289448184674
0004f0 01 a1 11 20 9c 54 64 3f b0 fa 28 1b f0 4b da bf
       0.0024817513772640303 -0.4108848824725255
000500 9c 0c 67 30 ea e6 db 3f 4a f6 10 8b 34 0d d9 3f
       0.43596892096338435 0.3914309843129088
000510 13 4f 60 40 31 e2 d5 3f 38 da b1 bc ff de dd bf
       0.34193068777789043 -0.46673577716083825
000520 e9 4e 5a 18 7a f1 c5 bf e0 25 8c cf 5e 36 bd bf
       -0.17143179120159083 -0.11411087576939094
000530 bc 8a c5 0c e8 58 cb 3f fb 46 08 e2 eb c4 c0 bf
       0.2136507093774379 -0.13100956475005163
000540 67 9f e3 cf 2d 3e e6 3f 97 77 1d fe 30 39 dd bf
       0.6950902042708379 -0.4566156846611817
000550 0b 8f 15 26 85 ea dd 3f db 7d a3 d3 37 7d de bf
       0.46743897170220866 -0.4763927046569429
000560 d1 96 7d f3 57 14 db 3f 54 8b bb f0 7f 20 d1 bf
       0.42311667230965805 -0.2676086283592458
000570 c9 dd 76 8b 97 40 df bf 5f 80 39 3d e9 06 cb bf
       -0.48831738109171546 -0.21114840974314839
000580 e1 55 5e 8f 22 1b ca bf 8a cf b7 7c 9b b7 b1 3f
       -0.20395309448637902 0.06920787615655236
000590 47 61 01 9e 2e 89 d2 3f 85 70 5d e7 16 4e b1 3f
       0.28962293081487583 0.0675978007179215
0005a0 ba 50 8e 30 76 5f cf 3f c5 5b ec 2f 98 cb d3 bf
       0.24510075922865387 -0.30930142097480157
0005b0 70 b9 a8 be 27 a2 e6 3f 7e e0 2e df cb 75 e0 bf
       0.7072943424043796 -0.514379440216558
0005c0 90 57 c2 0b 98 b0 d2 bf ed ab 7b d7 c0 15 dc 3f
       -0.292028438075584 0.43882771533270565
0005d0 5b 2f 30 04 ee 20 e2 3f 43 2c 98 87 c6 79 c8 3f
       0.5665197450448248 0.19121629353353073
0005e0 5b 30 93 64 32 25 b2 bf a1 03 34 0a 3d d6 bb bf
       -0.07088007884448315 -0.10873776911831935
0005f0 0b 23 d0 d4 00 b0 d6 bf 8d 73 c9 2c 37 34 d9 3f
       -0.3544923856975834 0.3938119828579197
000600 f6 3e 3b 6b 56 84 d9 3f 59 1d e4 c7 5e bf ec bf
       0.3987022444898537 -0.8983606247065082
000610 a8 2c d4 ec c0 f0 c2 bf 39 38 9e 02 e0 88 de 3f
       -0.1479722172156006 0.4771041894499635
000620 48 2d 17 92 74 6c 90 bf 51 e3 a3 84 e8 60 ce 3f
       -0.016038724342974292 0.23733240582057616
000630 cb 18 0e d8 ab 6a d7 bf 58 98 96 1e 5a 38 d0 bf
       -0.3658856973564865 -0.25343945490965814
