weights/W3.npy (npy, 1728 bytes, 1 tensors)

array f8 [10, 20]
00000000: 4f00 d904 4c08 bfbf 4e01 d950 7fff e23f
00000010: 582a dcd8 27f6 d4bf 1375 2337 c8d7 e03f
00000020: 2353 e1c8 a0c8 d93f ed3e 026e 53de cb3f
00000030: f5a6 224b 6291 d4bf 543c fdd1 1ac6 e0bf
00000040: c5e9 4d6d 2bd1 d23f 2d8a 459e 0586 e6bf
00000050: 2837 7265 6fe0 cebf ffd6 fe91 d511 c43f
00000060: c314 559c 5f97 b0bf c780 8186 cbcf d53f
00000070: ceb3 8f76 38d4 d3bf 3611 27f9 d046 a0bf
00000080: 1f00 8b99 41e2 d0bf 00e8 dd02 f107 d8bf
00000090: 13a3 449d d4da db3f dd97 74a3 6706 c2bf
000000a0: 4108 6762 634b d4bf c51e 108b ddfa d9bf
000000b0: 58f4 a5c9 2339 e03f d79f 3ac9 a5dc cfbf
000000c0: 05ff bd59 1c5e 82bf 1599 6d5e 7e49 d13f
000000d0: 2764 2dd5 b034 d63f 6e86 f445 2111 dcbf
000000e0: 6de1 fa1c 46d7 bc3f bbcf 8c5f 3382 d73f
000000f0: 296e 0b5a 9fc5 b8bf 77c8 13da 1078 e5bf
00000100: 28e7 7ff4 86ca de3f 5024 e7bc d9b4 a33f
00000110: f601 e2d5 3b1c d43f a59b 4e53 491a a0bf
00000120: 51f0 8fa7 9457 e3bf fc27 fe3b e19d be3f
00000130: d58a ac57 4567 8bbf 28d3 9996 5738 acbf
00000140: 3a3c 0ee1 f2ad cbbf 24d8 dd47 0a94 d3bf
00000150: 14f5 4d30 cf36 bdbf ad47 7ba7 4bcb d63f
00000160: 7022 e85c b72b e73f b05e 46c3 a25c cb3f
00000170: 04bf 3d5b 37e4 d33f eb48 7838 7fa1 dfbf
00000180: 4322 e134 e8f1 d33f 36da 6989 a990 d0bf
00000190: 3a37 64ed 043d d03f 0a3a 64eb 078e 853f
000001a0: aae9 55ef 71e6 c33f 09c9 2a93 1e42 d3bf
000001b0: 7b66 0341 8a00 c63f 1847 a57d 64ca d2bf
000001c0: 56f2 f2c5 7dd0 e23f 7e45 4c96 3f0e bebf
000001d0: de24 29b7 b2af ccbf b9e2 6e19 70a3 ac3f
000001e0: 845b cc40 449f c0bf 21d2 0282 6cda debf
000001f0: 63a2 b3a7 a7ca a3bf 6e2b b2e7 ad06 dd3f
00000200: ef06 1211 5579 a03f 8f4e 47b3 87ad c13f
00000210: 4acf a41f ec80 de3f aaa6 e497 ceb3 c3bf
00000220: ae6c aeff 00c8 92bf d29e 48b5 f4cc ce3f
00000230: e6ec 40c8 fe35 ba3f b480 ae74 0ca7 babf
00000240: 1bc2 f9ff 97eb e1bf ff4a ab7f bd23 c2bf
00000250: 5321 874f c43a 9b3f c9e2 d5ce 28a5 dcbf
00000260: bb71 e959 fa40 d43f d278 6580 1f13 c0bf
00000270: 2f84 8d8f 819d d4bf 752f 2f4a 9adf 913f
00000280: 4106 58fa 6271 c33f 1fa0 1635 379e c8bf
00000290: 6f26 8738 d12a bbbf c8a9 33d6 07f7 7d3f
000002a0: 5485 4f90 9afb c6bf 6bca b7b3 ba25 df3f
000002b0: a875 5235 d6d1 d4bf 8188 c115 8fff d03f
000002c0: c825 6881 aced cc3f 4365 c722 9036 e9bf
000002d0: 5298 e68e 2dbc c33f 52d0 187b 64cc cdbf
000002e0: a09c 5382 f982 aabf 17fc aa44 fb3c b4bf
000002f0: cf35 5735 c851 d0bf 9d81 c74b 5785 db3f
00000300: 8370 b56b fb5d da3f c964 a4c2 04ba a93f
00000310: 5065 627c 1fb8 cabf 04f3 98a3 1c3f e53f
00000320: efba 7948 9743 ddbf 228b 11ad 62cb e33f
00000330: 46d9 552e 43ec af3f 9dd2 b2fe 63cc da3f
00000340: d0f2 bc14 5a34 c4bf 023f 066a a226 cbbf
00000350: a459 d4d3 8e9f 8fbf d2e4 4d27 4680 c8bf
00000360: b505 d300 e8c7 c8bf d45c 903b 679a c9bf
00000370: 935b cbf2 bbdb e13f 6af1 aa91 6b6c c5bf
00000380: eb27 d105 715d c53f c79c 5ca7 d198 c33f
00000390: e6bb 5c36 35af d63f 3ff7 1819 6d50 8dbf
000003a0: f835 897e 36de babf cdca 6163 56ef ccbf
000003b0: 0cce 9e95 889e ccbf 0efa 2237 d771 d23f
000003c0: 86c0 e2d7 fd99 c73f 8c8f accd 69fb d4bf
000003d0: 2a11 22af 17ac d43f 57fd e53a 8a94 ad3f
000003e0: bddc bcaa 4880 dabf 03d4 6370 35a2 d3bf
000003f0: 9f8b ff2c b0e0 b63f 69ee 418a 9998 e3bf
00000400: 7bc2 dcde 3209 c93f 7474 108f 1266 d4bf
00000410: 87a4 6a69 e040 bcbf 3ac2 3c2a ad42 c3bf
00000420: 9b57 e4da b8aa c1bf 6042 551d 5886 babf
00000430: 603e d7aa 02dd d1bf 435d 0b66 90ce c2bf
00000440: 6625 a4b3 c0d0 e53f 14dc a13b 70b6 c2bf
00000450: 010f 3c5b 5b1d dd3f 9c82 e777 2c8c dabf
00000460: 816d b26a 799f b4bf de11 0ac9 409b c1bf
00000470: 3abc e0aa 592b d43f 8bb8 a7f7 4a59 c8bf
00000480: 95b3 933b 6ad8 d63f 6480 bdc6 6029 ba3f
00000490: ca16 23f0 9cf2 dc3f 6ac4 6e98 3682 e03f
000004a0: 32a2 f942 f2bc e03f c326 c88f ee6e e1bf
000004b0: ea71 c295 2ecc d83f 248f dc54 0409 b4bf
000004c0: 5a62 ea39 1d2a e03f 5a69 db49 81a6 c8bf
000004d0: ca8b dfdb dadf b33f 2908 1b48 32bc e1bf
000004e0: 014b 2802 673d b2bf 5287 7015 5b6e a2bf
000004f0: 6e8b e88e b679 d1bf a255 fe24 63d2 dcbf
00000500: 19b6 ddb0 f927 debf ca0d 7d46 b8f9 cd3f
00000510: 1f08 ee86 b816 d9bf 37ad b044 d840 dfbf
00000520: 2a8d e447 3031 c83f e62e d146 7714 d93f
00000530: cb0a 02ac 3f38 97bf 4e9f ec4a f562 d2bf
00000540: 49a8 788d 69c6 c23f 8c67 a9c3 ccea b13f
00000550: 24f7 fb72 0f73 c03f bf3e a493 851d bfbf
00000560: d645 5c35 409e cdbf 122f 7738 000d c2bf
00000570: dc2d a619 b4e3 c43f 6eba 0636 6f4a d93f
00000580: 0956 d1cc 5a64 cf3f df84 7bc9 6cbe d9bf
00000590: 2f23 6ac1 69b9 c1bf 9698 b3dc 1479 debf
000005a0: 8999 8693 6183 c8bf 5f3d 750a f7f5 ddbf
000005b0: 60f2 aca6 b075 c13f 2720 c61f 31d0 cd3f
000005c0: bf39 ab4e bec8 d4bf c554 39fb fe07 dbbf
000005d0: ce63 0ff5 816c db3f a2ea be91 01ba cc3f
000005e0: 2ea9 bec8 55de cfbf 0382 0e6d 60f5 e1bf
000005f0: c25f 07a7 368a d43f 99c8 f413 1410 d73f
00000600: c62a 7396 88a8 c13f 1559 4e31 94ad da3f
00000610: a1bd bc26 ff38 c83f 4277 1e62 3d53 de3f
00000620: 8690 8787 d008 743f 903a 44ec 7493 d3bf
00000630: 98a2 952c 9487 cebf 0907 a8f3 32ad c73f
-0.12122035139418695 0.5936886385971236 -0.32752414872871816 0.5263405873226098 0.40287036530689785 0.2177223479416094 -0.32137353265225893 -0.5241827107764814
0.29401670145275843 -0.7038601008646929 -0.24122421697068686 0.15679425839123692 -0.06480977598865238 0.3408078015836619 -0.30982791498427964 -0.031790285505424995
-0.2638095855181763 -0.37548470764124886 0.43523135526861373 -0.14082046014044539 -0.3171013318025225 -0.40593660908096424 0.5069750727121898 -0.24892113042483174
-0.008968564499582063 0.2701106950902539 0.34696598833176256 -0.4385455306201952 0.11265981872100435 0.36732181864794783 -0.09676547954898553 -0.6709064730951145
0.48111127736011605 0.038489155110774775 0.31422325026508646 -0.03145054952556529 -0.6044410011959461 0.11959655489604865 -0.013380567300889915 -0.05511735642804744
-0.21624599446337972 -0.3059106542417587 -0.11411757401761619 0.35615817409154255 0.7240864576898058 0.2137645200243603 0.3108042136218361 -0.49423199190745376
0.31163983501440756 -0.2588294832161496 0.2537243192935993 0.010524808760718169 0.1554701250677913 -0.3009106099299435 0.17189148115612682 -0.2936030604370088
0.5879505983535391 -0.11740491313346088 -0.22411188071627114 0.055934432129509166 -0.12986043132761094 -0.48208153435123974 -0.03865550920619822 0.4535326731353767
0.032175691922942444 0.13810821775279122 0.47661879625524206 -0.15392477432879065 -0.01834107933573808 0.24062975742093912 0.10238640202526347 -0.10411146019623879
-0.560009002640132 -0.14171570524066365 0.0265913651981305 -0.44758053015497673 0.3164659383817498 -0.12558358926157226 -0.3221134092219157 0.017454539087153848
0.1518977854139383 -0.19232835857587902 -0.10612208967281743 0.007315664875231005 -0.1795533375398387 0.4866778140123304 -0.32530741889226045 0.26559807896240534
0.22600323027317715 -0.7879105262065099 0.15418023564888245 -0.23280006418792937 -0.051780507239351126 -0.0790555040975821 -0.2549915810494356 0.43001348877262463
0.41198621290619303 0.05024733425143208 -0.20874398778395653 0.6639540858519415 -0.45725042417227163 0.6185773258442604 0.06234941425911926 0.41872501252081823
-0.1578476525554806 -0.21211652924511532 -0.015441051330111595 -0.1914146129527468 -0.1936006549858981 -0.20002451332468374 0.5580730192258322 -0.16737122166331214
0.1669141081241031 0.1531011645504121 0.35444383915722566 -0.01431355698434411 -0.10495319928414648 -0.22605399944912677 -0.2235880594795251 0.2881982840007432
0.18438694993301769 -0.32784504971845574 0.3230036936077051 0.05777389496779033 -0.4140798251496099 -0.3067754361684935 0.08936596964444597 -0.6123779011099489
0.19559322244596786 -0.31873001071091456 -0.11036493848463823 -0.15047230303163578 -0.13802252472004004 -0.10361242977274676 -0.27911440547629773 -0.14692883474956817
0.6817325123421767 -0.14619257842761668 0.4549168005907945 -0.414805523962096 -0.08055838446528264 -0.13755044762014185 0.31514589011470984 -0.1902250012639722
0.35695892160475157 0.10219387867027901 0.45230792475591086 0.5158951737595434 0.5230647380931883 -0.5447914894332019 0.387462278604089 -0.07826258727851304
0.5051408892787308 -0.19258133035948327 0.07763450496672344 -0.5542231949150437 -0.07124942591353191 -0.03599819790566862 -0.2730537791814446 -0.4503410207047073
-0.4711899020393005 0.2341833442861641 -0.39201176811923405 -0.4883328123857668 0.18900111685170745 0.39187414088949735 -0.022675509332212223 -0.28728992764307726
0.1466800633218688 0.06998901154420717 0.1285113631674274 -0.1215442166760523 -0.23139193158617272 -0.14102175480945128 0.16319895985030441 0.3951681163406765
0.24525008202424228 -0.40224761653924007 -0.13847085899421915 -0.47614022782216503 -0.19150943473250617 -0.4681375124100295 0.13640411508994799 0.23291601230107625
-0.3247524040461051 -0.42236303838337746 0.4284977811017229 0.22442645660870136 -0.24897262861242936 -0.5612032060635673 0.3209358817234681 0.36035634945722844
0.1379557356470597 0.41684441390079147 0.18923940078228177 0.4738305528825216 0.004891218727127838 -0.3058750445642682 -0.23851253678300988 0.18497311494143556
