weights/W3.npy (npy, 1728 bytes, 1 tensors)

array f8 [10, 20]
000000 e5 dc b8 a3 de 5f c5 3f de a2 4d 14 cc 83 66 3f
       0.1669882106232087 0.0027483926700607583
000010 51 29 c7 18 c5 cf bc 3f 39 44 2d 42 ab 06 dc 3f
       0.11254531722002993 0.43790704214649484
000020 47 1b 34 f9 c2 ea b0 3f cb 9c 51 dc b5 54 d8 bf
       0.06608217796393233 -0.38017031207568824
000030 02 bf d1 3e 98 f4 e8 3f 77 cf c1 5f 0c f4 e5 3f
       0.77985775250815 0.6860410566573439
000040 3f 26 07 f7 0f 38 e4 bf 0f da a2 b8 8d 20 83 bf
       -0.6318435501827436 -0.009339434811733075
000050 20 65 2a c9 bd af d1 3f 89 c9 33 23 ab f2 b8 3f
       0.2763514008052699 0.09745282754355435
000060 51 25 93 70 5e fa 84 bf 9b 8e be 67 eb 25 d3 3f
       -0.010243165789136784 0.29918942576680657
000070 d2 74 f4 91 a0 57 bb 3f c5 91 15 f7 f6 89 b0 3f
       0.10680583537437663 0.0646051743729635
000080 0c 1f 20 b7 07 83 d3 bf 1b fc 14 a2 ae a2 de bf
       -0.3048724449476914 -0.47867933109586297
000090 02 c2 93 ae 47 68 b2 bf 00 89 8e 3b 4e 27 d5 bf
       -0.07190368663919602 -0.3305240232094917
0000a0 5d 6b 06 7a 71 07 ea bf e3 25 e8 97 ba 94 da bf
       -0.8134086020757924 -0.41532769045497114
0000b0 9b 3e 06 7f cd a3 d1 bf 24 a9 6e a8 09 0e ca 3f
       -0.27562272457815035 0.20355339740974288
0000c0 d7 7a 07 2f b1 f1 ce 3f 3e 76 fe 49 10 07 db 3f
       0.24175085827206175 0.4223061297032905
0000d0 e8 29 1f 0e 26 9f a9 bf 00 22 a1 54 87 52 df bf
       -0.050042332862705596 -0.48941214813797274
0000e0 bd da ee 68 53 c4 db 3f 64 52 4f 8b bc 71 77 3f
       0.4338577770935606 0.005723701954555158
0000f0 58 85 93 76 d1 fa de 3f 66 58 b3 25 a6 6a db bf
       0.48405872897827384 -0.42838433915802054
000100 de 00 0f 5e 43 d2 d8 bf 9b 7a 21 79 75 cd dc bf
       -0.3878334444562038 -0.45004021481683204
000110 3f 45 46 8b 5e 6c a6 3f b5 e7 b8 db 93 1e c2 bf
       0.0437955422413645 -0.1415581534254763
000120 13 0c 57 8b a8 72 c3 3f 33 70 8e 5f a6 9f b6 bf
       0.15193659595215134 -0.08837356408042822
000130 25 0c d1 c4 31 4c d8 bf 94 76 79 93 b8 bb de 3f
       -0.37965053768511076 0.4802075805836037
000140 30 4c c5 a8 93 8f c3 bf 96 8d 92 a3 a6 2e d4 3f
       -0.1528191160274175 0.3153473470103675
000150 db 80 97 1b 39 9c 49 3f 47 56 44 02 13 7b d1 bf
       0.0007815626951775083 -0.2731368562830067
000160 77 5f 4a 8a 7f 20 d9 3f 28 db 76 93 f2 97 d5 bf
       0.39260853295262826 -0.33739914322670694
000170 49 a5 ff 03 b0 a8 a3 3f 32 13 26 34 f3 c8 b3 bf
       0.03839635895549038 -0.07728500388300288
000180 df e2 f6 98 c8 f9 d0 bf b8 39 ee 39 db e3 dc 3f
       -0.2652455800812685 0.4514072480896192
000190 f5 49 01 e6 93 e8 95 bf 9c 83 27 e3 45 e7 88 3f
       -0.021395026124375566 0.012159868235302622
0001a0 62 f7 fc 64 07 72 d8 bf a0 89 00 cc c4 f7 dd bf
       -0.38195977079509735 -0.4682476036270149
0001b0 7c 19 f9 99 65 b5 90 3f 10 87 9d d6 05 8c de bf
       0.016316974184769503 -0.4772963138440085
0001c0 6e 78 0f bf ce 60 c6 3f 60 b7 3b ef a6 8f e7 3f
       0.17482933358309388 0.7362856552624457
0001d0 3b 05 53 58 8f b8 d8 3f 9b 7f 60 ac ae 08 a3 3f
       0.38626464486522466 0.03717561582766323
0001e0 33 7c 33 f2 51 12 cf bf 70 c4 7e 69 56 52 cc 3f
       -0.2427465851423861 0.22126274253017497
0001f0 db 0d 43 ea f7 3a 9e bf db c8 2c 87 39 5b ae 3f
       -0.029521821664060127 0.05928973937115397
000200 5d 88 57 18 c4 06 cc 3f 20 9b ad 96 4b 56 d0 3f
       0.21895648182459385 0.2552670451608936
000210 e9 03 ee 25 b9 67 c7 3f fe 7e db 92 d7 d1 da bf
       0.1828528819278568 -0.41905774442237476
000220 bf 24 52 c7 ae c0 9a 3f ca 97 cd 73 e7 33 d6 3f
       0.02612565127904953 0.34691797551056125
000230 55 3f be 3b 16 23 d9 bf ba db 6f 82 3f c5 ab bf
       -0.3927665313176381 -0.05423925845382578
000240 2f 9c f5 85 bd 92 da 3f b0 fd 55 2c 06 6c b3 bf
       0.41520631868337693 -0.0758670671693753
000250 f5 ec 88 49 bf 67 9c 3f 5b b0 26 75 79 25 be bf
       0.027739514220439927 -0.11775931463370297
000260 35 1c 16 7f 29 03 e7 3f 13 0e f4 91 3f 08 bb 3f
       0.719135997977793 0.10559460938753089
000270 5a 24 22 4d 18 7e de 3f 1a e3 ed bb e8 a0 c3 3f
       0.47644622356944455 0.15334805656655065
000280 a8 c0 cc 93 33 a2 df 3f 86 02 d4 32 f5 e9 d2 3f
       0.49427499230933813 0.295529651295546
000290 83 5b 6f 1e d6 df d7 3f 9b d1 04 d8 ae 19 e3 3f
       0.3730368897644711 0.5968851298444408
0002a0 3f 86 d0 cf 60 49 dc bf f7 19 44 45 97 8a bc bf
       -0.44197864813222404 -0.11148972931923838
0002b0 12 0f 82 5d 08 08 be bf 96 fa 42 44 14 d7 a0 bf
       -0.11731006892119591 -0.03289092381736684
0002c0 77 e7 4e dc eb d0 c0 bf 21 63 ba 94 ed de c8 3f
       -0.13137577302205347 0.19430322420228044
0002d0 92 6e 86 59 ba dd e5 bf e1 e4 96 4f a1 ff d4 bf
       -0.683316397527465 -0.32810242435841813
0002e0 78 bf 80 38 42 fd c6 bf b9 fa 75 14 70 65 b9 3f
       -0.17960384138995855 0.09920406817944184
0002f0 ba 1b a0 46 13 69 b8 3f 77 36 f4 b4 06 b0 a1 3f
       0.09535332178357595 0.03454609831724736
000300 6e 25 f3 40 43 e6 d5 bf f2 da 49 1c e1 82 a9 3f
       -0.34217912047150534 0.049826655104814224
000310 c3 8b a6 d4 d0 44 c8 bf a4 48 d5 95 2a 1f e2 3f
       -0.18960008986786478 0.5663044859341153
000320 c6 7b f5 f0 9c 1e da 3f ea f3 18 8e a1 01 e3 bf
       0.4081184723963215 -0.5939491057721373
000330 3c 10 f4 ea ad 33 a0 bf 00 f0 b8 90 98 04 df 3f
       -0.03164428227503932 0.4846555150322729
000340 f9 12 24 e4 ba be c6 3f 36 da 82 33 d8 45 9f bf
       0.17769561900799838 -0.03053987326048909
000350 a5 ea dc c1 2b b1 cd bf fa 92 6e bb 7e fa c6 3f
       -0.23196932760204905 0.1795195021815273
000360 d2 01 73 24 df 7d c5 3f 93 df da 0a 95 e3 d4 bf
       0.16790379791019788 -0.32639051494651844
000370 36 6f af 88 64 b8 c8 3f b6 28 1d 7b b2 61 cd 3f
       0.1931272189530035 0.22954398166104334
000380 aa 54 b0 ec 00 28 c7 3f cf a3 66 0c 42 6a d6 3f
       0.18090831334180751 0.3502354737379933
000390 81 f8 3f 18 1a df ea bf f4 bf ef e4 9b ca c8 3f
       -0.8397341226225451 0.19368313482800625
0003a0 ba 9d d9 f5 06 a2 da 3f 10 8d 2c 82 9b 92 cd 3f
       0.4161393547896882 0.23103660446313556
0003b0 ed c9 ee 49 6b 5f c4 3f c5 87 d9 d3 33 93 c8 bf
       0.15916195974348515 -0.1919922623083591
0003c0 75 f2 bc 82 23 bb b7 3f 16 d7 40 7e 40 86 d5 3f
       0.0926992601570847 0.3363190873090941
0003d0 d7 ed 27 c0 4d 40 d1 bf ad 33 12 90 a2 1e e0 3f
       -0.2695497871897862 0.5037396253479663
0003e0 34 82 4d f5 bc d9 b5 bf 73 51 0f b8 6c d2 ab 3f
       -0.08535367001378164 0.05433978792976548
0003f0 0c 0d 77 40 8f 35 db bf bb 0d dc 58 06 2d e0 3f
       -0.4251440171758112 0.5054961905993233
000400 4d 67 8c 3c 7f 39 b2 bf dd f3 d6 17 4a ed ad 3f
       -0.07118983486398385 0.05845099965106446
000410 1d 60 d7 1c 34 af c9 3f 75 2f 77 0d b4 37 90 3f
       0.20065928848521333 0.015837491342423477
000420 b7 a3 21 be 2c ef b3 bf 31 b1 5f a7 4a f3 b5 bf
       -0.07786826745872487 -0.08574358545564988
000430 ad 89 90 b6 e9 74 ba 3f 0a f9 9a 4d 69 8a 8a bf
       0.10334644992011617 -0.012959311180904116
000440 58 92 d4 21 be 97 cc 3f 9e 41 2b 51 a1 41 9e 3f
       0.22338081981537772 0.029547234133873716
000450 22 45 3b c0 bf 01 e2 bf 5d 13 78 78 dc 56 d0 bf
       -0.5627135042688318 -0.2553015877204439
000460 22 c5 d7 79 50 c1 c0 bf 0e 76 e1 76 91 22 d9 bf
       -0.13089948605878826 -0.3927348767227564
000470 07 38 bf f4 1c 03 e0 3f 36 28 17 ed 28 2b d1 bf
       0.5003800182546464 -0.2682592692696092
000480 6d ae b4 36 5a 12 cd 3f 66 86 34 8b 1e be cb bf
       0.22712257071667655 -0.21673948094489787
000490 7b 71 01 fd 14 84 b9 bf 67 ea 1f 52 22 59 c1 3f
       -0.09967166115661101 0.1355326558112495
0004a0 6a 78 09 bc cc df c3 bf 08 a7 2e 74 22 9a da 3f
       -0.15526732617849187 0.4156576284973288
0004b0 48 e0 36 fd 4c 71 c4 3f 94 ed ca 48 ec 7a d1 bf
       0.1597076641462556 -0.27312762364064125
0004c0 d2 ae 23 9a 7d fe d7 bf d9 7f a4 8e 80 87 e8 3f
       -0.3749078755633778 0.7665407930362519
0004d0 40 6e d9 af 80 cb e4 3f d9 31 23 02 73 6e 98 3f
       0.6498416361386674 0.023858830457173717
0004e0 4f cd 8f 27 8f 10 c8 bf d0 52 33 4b 18 06 e0 bf
       -0.18800534660077026 -0.5007440060386106
0004f0 e0 20 0e 86 e3 8a d6 3f ad 77 c3 24 b7 36 c3 bf
       0.35222709742857994 -0.15010728163809742
000500 bf ad 6e 77 b9 1e b9 3f 52 eb d1 f7 bb 9e c3 3f
       0.09812506833866673 0.1532816848810748
000510 d9 d5 3e aa e0 5a d0 bf f8 22 a7 6a a5 a3 b0 3f
       -0.2555467283776501 0.06499704221563352
000520 5b af 90 e1 ec 04 bd 3f f6 1f ec 06 39 f5 cf bf
       0.11335640437090204 -0.2496711047936057
000530 e6 79 c2 19 93 4f 9d 3f 6a e2 55 23 7a cf db bf
       0.028623865554090154 -0.43453839731913624
000540 76 a7 54 c7 79 35 e1 3f 8d 7f ea 78 72 22 cc 3f
       0.5377777951409672 0.2198012438211631
000550 3f 3e 3e d0 ea b8 ab 3f a3 5e c3 3b 00 43 d6 bf
       0.05414518157988057 -0.34783941112753264
000560 08 60 28 2b 97 48 a9 3f c7 c0 ff 87 1c 23 da bf
       0.04938194658114986 -0.40839303284793654
000570 44 d8 86 0d 1d 83 e4 bf c1 f5 a2 e7 75 67 b2 bf
       -0.6410050644105998 -0.07189118294896614
000580 06 77 4f e0 a9 e2 ce bf e2 28 f6 72 63 0b be 3f
       -0.24129222347885831 0.11736127430609458
000590 57 4a 78 0d 8d cc d8 3f d8 2c ba 0e 91 5d 8a bf
       0.3874848014394607 -0.01287377668565741
0005a0 bf 43 c0 2b 09 ab c6 3f fd 6d 1d 92 4b 79 bb bf
       0.17709459911614364 -0.10731956784496073
0005b0 0f 5a 63 67 0f 46 df 3f b6 fd 92 6f 07 b7 b8 3f
       0.4886511335038514 0.09654280160883996
0005c0 fe 2e 45 14 cb c2 c6 bf ac ca 7a 65 e5 00 d1 bf
       -0.17781961908109872 -0.26567969236490785
0005d0 eb fa 5b bf f2 6a e1 bf 70 96 d9 e1 92 8c af bf
       -0.5443052041517523 -0.06161936766583842
0005e0 f4 a5 cd e8 90 ab a7 3f 21 3f 8a a6 fa a1 da 3f
       0.04623082010114024 0.41613641990351097
0005f0 45 4f f4 65 ac 53 c3 bf 6a 12 76 fa fb 70 c6 3f
       -0.1509910104583644 0.17532300691177066
000600 6d 32 1d b5 0a d8 c6 3f 05 33 52 13 11 ec e2 bf
       0.1784680733056975 -0.5913167359700259
000610 b3 9e bd c7 cf 6d b5 3f e8 25 f1 14 be ab e2 3f
       0.0837068426750374 0.5834646615050447
000620 3b 6f 76 3b 7f 40 8b 3f ee f8 3b 67 f4 58 dd bf
       0.01330661201682625 -0.4585543640277042
000630 b7 97 2a ee 27 b2 d2 3f 50 fa 25 1f 39 dd 9b 3f
       0.2921237779468088 0.02721108677496381
